data/Proteins/rcexplainer_1.0/best_model_base_gcn_run_1_explainer_run_1.pt (torch, 12319 bytes, 3 tensors)

elayers.0.weight f4 [64, 40]
00000000: 93f8 b43d 1ed5 71bd e204 5ebc 5435 bd3d
00000010: c4ae bebd bde4 1d3e 5fd7 40bd f7cb df3d
00000020: 2b17 283d 6c46 bcbc de12 c03d c18f cbbc
00000030: 9395 403d f1c0 00be a5b4 433d c868 253c
00000040: 0c16 933d 782f 0a3c de97 173e d137 233e
00000050: bc38 64bd bc55 cbbd a5e6 27bd ea32 54bd
00000060: 3cf3 cebc 81e0 393d d235 a43d 7fff ed3d
00000070: 3bf7 42be d767 c03d 1160 b63d dd89 f33d
00000080: 0f21 bc3d d0ff 67be a888 f9bd feb1 86bd
00000090: a375 3a3e bb5a adbc 700d 3c3d 08f1 b03c
000000a0: 559c ba3d e000 61bd 7bed 2e3e ea6d ccbb
000000b0: 2c30 dcbc c910 6fbc 1be3 cabd 2174 82bc
000000c0: 3cbe a4bd 2b30 45bd d99a 41be 2886 dfbd
000000d0: 3f6d c13d 43e8 77bd 84b0 223e d773 ff3d
000000e0: 67e6 bbbc 60f8 16be a1f0 a33d f25e bc3c
000000f0: f13a ffbd 82c6 073e aae1 0c3e 2e38 053e
00000100: 93b2 1cbd 029d a3bd 47c6 fdbb a0af 24bd
00000110: 89e6 c2bd 4a3c 0cbe b80e 353d 7fc6 93bd
00000120: 968a a93d d2fe ee3c 0a5a bf3d 82a9 133d
00000130: fdc5 423d 5e95 0f3d 8f7a e1bd 06cf 7e3d
00000140: ee21 c3bd 6c71 c7bd 45ea 95bc eba6 bcbc
00000150: 334e 863d 8af8 37be 3ec5 ecbd 417d b23d
00000160: aa69 a5bc d366 df3d 43eb 2abc 3a2e 23be
00000170: 3509 6b3d 7676 1c3d 1df8 dbbd ae95 99bd
00000180: eb29 553d bfe3 293d d561 46bd 355e e9bd
00000190: e40e 083e 0913 a5bc eecc 013d 164f 7c3d
000001a0: 959f 16be ddd4 7bbe 89bb 2d3e 3fb9 f1bc
000001b0: 4716 513d 274c 393d fb42 e5bc 55c9 733d
000001c0: 04fe 2a3e 01a1 11be 2096 8abb 613b ca3d
000001d0: b942 c33d 0e80 ce3d a6a9 eabd 7499 53be
000001e0: 19ce edbd b074 44bb d371 223e b436 e8bd
000001f0: 7fe3 d13d 98a6 aebd 60f9 2abe 9ee4 63bd
00000200: e9ee 953d 2649 0d3e 2401 a3bd e995 dc3b
00000210: 846e f93d 94e1 933d 52b9 b23d 6f62 d83d
00000220: 7213 d73d 38ad 283d 556d 06be 3c76 91bd
00000230: 3476 c4bd f06d 77bd e662 09be b540 193d
00000240: c2ff df3c ffd6 79bd e891 283d 00ba c93c
00000250: 4032 5a3d 7760 bc3d cdb5 32bd db0f f03d
00000260: 743f 37bd 237f 69bd 1c03 43be ce05 07be
00000270: 3031 dbbd 8fd4 9fbd 6e8c 893d fc44 1ebd
00000280: a2ed 39be 4276 b13d 011a ee3b a628 773d
00000290: 0b4b 06be cc45 2abd 73ea e4bd ac63 3dbd
000002a0: d094 82bd 53bf 21be 03bf eebd 9c5c f83b
000002b0: 9727 a6bd 7043 253e 5080 473e 2f5a 073e
000002c0: ca73 a93d 605e 84bd 0e1e 03bd 0638 36bb
000002d0: 7f15 c4bd 7f46 af3c ac05 18be ba27 85bd
000002e0: 320f d5bd 4a37 823d c1fa 39be 517f 06be
000002f0: 5a31 393d 99b7 1cbe 5363 77bc 1190 eabd
00000300: d78c 0bbe a14a 083e 48ae 203e bf8f d0bd
00000310: ddc2 8d3d 539e 223d b73d 6b3e 7b70 61be
00000320: a6e2 1e3d 4d9d 13be a47b 063e fc1b 9fbd
00000330: 046a c03d 1309 a33d 8507 f4bc 58cf dabc
00000340: 51ff a83a d1e0 943d abe4 b63d 8aef 8d3d
00000350: f508 23be e2c9 773d 0fd5 043e 0eab 0e3e
00000360: bfc7 0a3e c2b0 d6bd fa78 c6bd 542d 733e
00000370: 229b 16be 55a6 d23d d05b 32be 9fdd 07be
00000380: b905 293d 5e49 9bbd 0b46 63bd 37ee c03d
00000390: 42c8 9f3d 93e6 113e 7f79 7a3c cf53 f1bd
000003a0: cc0e 043e f017 c4bd 1cee c8bd d4a0 df3c
000003b0: b901 dfbd 7bb3 d53d 557e 443d 5e63 91bd
000003c0: e04a edbd 65d4 4f3d 3266 003e 3e82 8c3c
000003d0: 02fc f6bc ea0d 93bd 0c6c efbd 87f8 fcbd
000003e0: 3b7b 98bc 784f 163e 9c29 273d a29f c7bd
000003f0: 0b27 413d 1c85 463e 7917 c63d f573 9ebd
0.08836474 -0.059041135 -0.013550969 0.09238687 -0.09310678 0.15419288 -0.047080394 0.10927575
0.04103772 -0.022982799 0.09378599 -0.02484882 0.047017645 -0.12573601 0.047779698 0.010095783
0.071819395 0.008434169 0.14804026 0.15939261 -0.05571817 -0.09928462 -0.040991444 -0.051806368
-0.025262468 0.04538012 0.08018078 0.11620998 -0.19039623 0.09394806 0.08905042 0.1189153
0.09185993 -0.22656178 -0.12184268 -0.06576918 0.18208937 -0.021161428 0.045911252 0.021599308
0.09111849 -0.054932475 0.17082779 -0.0062386887 -0.026878439 -0.014591404 -0.09906598 -0.015924515
-0.08044097 -0.04814164 -0.18906726 -0.1091426 0.09444665 -0.060524236 0.15887648 0.124732666
-0.022937013 -0.14743185 0.08004881 0.022994492 -0.12462414 0.13259318 0.13757959 0.13009712
-0.03825624 -0.07988931 -0.0077445838 -0.04020655 -0.09516627 -0.13694873 0.04420349 -0.072155945
0.08278386 0.029174242 0.093433455 0.036050327 0.047552098 0.035054557 -0.11009704 0.06220915
-0.09527956 -0.097384304 -0.018300185 -0.023028811 0.06557884 -0.17965904 -0.115610585 0.087152965
-0.020191986 0.10908284 -0.010432067 -0.15935603 0.057381827 0.03819891 -0.10740683 -0.07499252
0.05204193 0.04147696 -0.048433144 -0.11394922 0.1328693 -0.020150678 0.031689577 0.06159886
-0.14709313 -0.2459292 0.1696607 -0.029507278 0.051046636 0.04523864 -0.02798604 0.059518177
0.16698462 -0.14221574 -0.004229322 0.09874607 0.09534211 0.10083018 -0.11458139 -0.20664006
-0.11611576 -0.0029976778 0.15863733 -0.11338559 0.102484696 -0.08527869 -0.16696692 -0.05563795
0.07320959 0.13797435 -0.07959202 0.006731738 0.12179282 0.0722076 0.08726753 0.1056565
0.10501756 0.04118082 -0.13127644 -0.071026295 -0.09592858 -0.06040758 -0.13416633 0.037415225
0.027343635 -0.060996052 0.041154772 0.024624825 0.05327058 0.09198087 -0.04363041 0.11721774
-0.044738248 -0.057006013 -0.19044155 -0.13185808 -0.10702741 -0.07804214 0.06716238 -0.038640007
-0.18157056 0.08665134 0.0072662835 0.0603415 -0.13114564 -0.04157047 -0.1117753 -0.046237633
-0.0637604 -0.1579564 -0.11657526 0.0075793993 -0.0811302 0.16139007 0.19482541 0.13217996
0.08274038 -0.06463313 -0.032011084 -0.0027804389 -0.095744126 0.02139592 -0.14845914 -0.06501718
-0.10403289 0.06358202 -0.18162061 -0.13134505 0.04521308 -0.15304412 -0.015099364 -0.1145326
-0.13627945 0.13309719 0.15691483 -0.101836674 0.06921933 0.03970177 0.22972761 -0.22015564
0.038790368 -0.14415474 0.13133103 -0.077690095 0.09395221 0.07960715 -0.029788742 -0.026710197
0.0012893473 0.07269443 0.08930334 0.06930454 -0.15921386 0.060495265 0.129719 0.1393244
0.1355276 -0.104829326 -0.09691043 0.2374776 -0.14707616 0.102856316 -0.17417836 -0.13268135
0.041265223 -0.07582353 -0.05548672 0.09420436 0.07801868 0.14248113 0.015287756 -0.11783563
0.1289627 -0.09574878 -0.09811041 0.027298369 -0.108890004 0.10434624 0.047972042 -0.07099031
-0.11586547 0.050739665 0.12538984 0.017151948 -0.030149464 -0.07180388 -0.1169053 -0.1235209
-0.018613448 0.14678752 0.040811166 -0.097472444 0.047156375 0.19386715 0.09672446 -0.07736961

elayers.0.bias f4 [64]
00000000: d576 e03e a0f4 eebd 1fea 58bd 10c8 cebd
00000010: 4aef 47be 2708 e2bd 40b5 05be 15b0 07be
00000020: 226f d13e 30a6 8ebd 21a2 df3e 0222 db3e
00000030: 9ac4 6bbc b162 8bbb baaa 3d3e 6ef0 afbd
00000040: 7fd0 45bc 49d0 ed3e cc59 5abd f83f ee3e
00000050: d446 debc 1870 b13e 83b6 2abc 26bd 36be
00000060: e8cf f13e 7d6e cdbd 0975 c53e 08e8 9a3e
00000070: a8a0 f93e c2ba 9f3e 930c 49be 0963 ba3e
00000080: 8722 c83e 39cc 9a3e 0a34 40be 7f22 87bd
00000090: 43e0 74ba 3bbc dbbc 3ec7 96bc 40af a4bd
000000a0: 145f 70bd 096b 24bd 3e91 d33e 04b3 c2bc
000000b0: 0e09 dfbc 9fe6 a03e 49bc 6ebd e0e3 8dba
000000c0: 7d40 b83e 164d e1bd 81a2 c93e d3cd e73e
000000d0: 4181 6dbd c2f7 e03e cb81 9fbc 9429 bfbd
000000e0: ac43 533e df7a c3bd dc7a aabd c725 a33e
000000f0: 2710 9fbd 891f 933e 897b cb3e 3d86 a53e
0.43840662 -0.11667752 -0.05295765 -0.10096753 -0.19524875 -0.11036711 -0.13057423 -0.13250764
0.409051 -0.069652915 0.43678382 0.42799383 -0.014390135 -0.0042537083 0.18522158 -0.0859078
-0.012073635 0.4644797 -0.053308293 0.4653318 -0.027133383 0.34655833 -0.010419491 -0.17845592
0.47228932 -0.100308396 0.38565853 0.3025515 0.48755383 0.31197172 -0.19633703 0.36403683
0.39088842 0.30233935 -0.18769851 -0.065983765 -0.0009341279 -0.026823154 -0.018405553 -0.08041239
-0.058684424 -0.04014114 0.41321748 -0.023767002 -0.027225997 0.3142595 -0.05828503 -0.0010825358
0.359867 -0.11001031 0.39381793 0.4527422 -0.057984594 0.43939024 -0.01947107 -0.09334102
0.20631284 -0.0954492 -0.08324215 0.3186476 -0.07766753 0.28734997 0.39742687 0.32328978

elayers.2.weight f4 [1, 64]
00000000: d4f0 64be 951f 0c3e 0cb9 0a3d 98c7 0dbd
00000010: a0a0 443e 62fa 56bd 252c 7b3e 0610 7a3e
00000020: d039 9bbe fd0b 013e 9dd3 b4be 18f6 b5be
00000030: e635 83be e93b 253d 6ff8 04be 1ffa 29bc
00000040: 780a f1bd e5b9 b1be 5e4a acbd 5bb2 bfbe
00000050: 3243 6d3d f078 ecbe 8e35 813d f24a 0d3e
00000060: e5d8 a0be 3c8f 75bd cd6e 5fbe 5458 c2be
00000070: 82c6 9abe 3c31 c0be 9d19 103e 0970 90be
00000080: 0850 89be b2d9 ecbe c44d 373e ffdf eb3d
00000090: 182d 6f3e b26f 233e ed35 013e bca5 0f3e
000000a0: bb5a d63d ee76 e83d 8035 97be 4f25 313e
000000b0: ca23 0a3e b726 98be 696f 6f3e 4108 5f3c
000000c0: ea95 c8be d39e cebd fec4 aebe fc72 aebe
000000d0: 215f 2c3e 15e1 69be cb6a 06be 14d5 803e
000000e0: 64fc 93bd ae28 363e 80b2 3f3e 8dd7 dabe
000000f0: d44e 423e 98ae abbe 1985 88be d027 f4be
-0.22357494 0.13683923 0.03386788 -0.034614176 0.19201899 -0.052484877 0.24528559 0.24420175
-0.30317545 0.1260223 -0.35317698 -0.35539317 -0.2562706 0.040340338 -0.12985395 -0.010374575
-0.11769575 -0.3471214 -0.08412622 -0.37440762 0.05792541 -0.46186018 0.06309043 0.1379812
-0.31415477 -0.059951052 -0.21819611 -0.37958014 -0.30229574 -0.37537563 0.1407227 -0.28210476
-0.26818871 -0.46259838 0.17900759 0.11517333 0.23357046 0.15960577 0.12618227 0.14028066
0.10466524 0.11350809 -0.29533005 0.17299388 0.13490215 -0.29717037 0.23382343 0.013612808
-0.39176875 -0.10088887 -0.34134668 -0.340721 0.16833164 -0.22839768 -0.13126676 0.25162566
-0.07225874 0.17788956 0.18720436 -0.42742577 0.18975383 -0.33531642 -0.26664045 -0.47686625
