data/syn4/basegnn/gcn-max/gcn_3layer_syn4.pt (torch, 7183 bytes, 5 tensors)

gc1.bias f4 [20]
-0.3466819 -0.00017523002 0.24369577 -0.011028267 -0.0056879395 -0.0039960635 -7.7082596e-10 -9.4433315e-09
-0.02234392 1.2260713e-24 0.21154779 2.409543e-21 -0.093337476 -0.53467125 5.324394e-25 -2.2637921e-07
-0.050534286 2.675658e-24 0.064437285 -1.756531e-23
00000000: 4a80 b1be f3bd 37b9 628b 793e e8af 34bc
00000010: e561 babb 69f1 82bb 0ee2 53b0 363c 22b2
00000020: 990a b7bc b0b9 bd17 fc9f 583e 570f 361d
00000030: b827 bfbd 37e0 08bf 32c8 2417 a512 73b4
00000040: 0afd 4ebd de04 4f18 b2f7 833d 9ae1 a999

gc2.bias f4 [20]
-0.06118127 -1.8122213e-25 -4.3653903e-10 -0.04760048 0.05051222 -0.05561321 -5.7345474e-25 -2.2788518e-22
-1.5075648e-07 0.0009927176 -0.38754338 -5.602833e-22 0.06442302 0.21858712 0.01441818 8.616908e-11
-1.3134054e-08 3.8322405e-20 -4.0865378e-09 -7.7218015e-25
00000000: 3699 7abd 9657 6096 68fd efaf b9f8 42bd
00000010: e7e5 4e3d adca 63bd c479 3197 86bf 899b
00000020: a0df 21b4 131e 823a 166c c6be d255 299c
00000030: 37f0 833d 4dd5 5f3e 3b3a 6c3c e17c bd2e
00000040: 2ea4 61b2 f2f8 341f 9169 8cb1 6afa 6e97

gc3.bias f4 [20]
-0.28594092 0.15885867 -0.102409184 0.13322125 -0.077149436 -0.25898063 0.18617406 0.324077
0.2696857 0.011213622 0.14126584 -0.16610289 -0.2137549 -0.14996062 0.06341888 -0.08682554
-0.119215906 -0.09083976 -0.26602083 -0.15993337
00000000: d966 92be d9ab 223e e8bb d1bd 276b 083e
00000010: 8600 9ebd 1c99 84be 6aa4 3e3e 6ced a53e
00000020: 3e14 8a3e 57b9 373c fea7 103e e016 2abe
00000030: 91e2 5abe 478f 19be c2e1 813d 97d1 b1bd
00000040: 7827 f4bd 320a babd e233 88be 93c5 23be

fc.weight f4 [2, 60]
-0.29348737 4.0251063e-13 0.12143632 -0.0022974953 -0.008726026 4.1399977e-05 -7.724626e-15 -3.0582676e-23
0.025061883 -2.4851686e-22 0.08973052 4.088915e-23 -0.03856021 0.61276555 -3.1115356e-25 2.6608082e-10
-0.013788503 -3.295536e-26 -0.08536697 -3.8848814e-25 -0.5569175 1.9668787e-25 4.5339118e-23 0.22806959
-0.30423164 -0.48973805 -8.107426e-20 5.8073668e-24 5.7549517e-24 -0.015877057 0.48394096 -7.269896e-24
-0.48643398 -0.12895867 0.29459965 -5.5078614e-13 2.409019e-23 -4.5863134e-21 2.5375271e-24 4.9019823e-23
-0.9289795 0.614283 -0.91097414 0.8560972 -0.7402896 -0.84368974 1.072572 1.0802846
1.0953124 0.5214569 0.55751824 -1.0809922 -0.77085656 -0.8956068 -0.33050498 -0.855775
-0.76706755 -0.7059948 -0.9322809 -0.6914987 0.16258267 -4.645943e-13 -0.025963865 0.0025652181
0.0102868425 1.8678526e-05 1.0439397e-14 -1.9464542e-18 0.04358424 -1.3473687e-24 -0.11736302 2.3771622e-19
0.022806462 -0.6578607 -1.3780324e-18 -1.9660862e-10 0.0005876615 -6.837757e-20 -0.07428837 1.8446501e-22
0.5365405 -2.1680856e-27 -4.8032735e-25 -0.22931772 0.3116555 0.50522053 -5.3192544e-24 6.675214e-20
9.875062e-24 -0.0015749958 -0.5216354 2.6294723e-21 0.4578817 0.18296269 -0.299191 1.109236e-12
1.8795056e-19 -1.29141926e-23 -5.582218e-22 -7.703691e-20 0.8643322 -0.5138834 0.91916764 -0.70366246
0.6371353 1.0026662 -1.1224244 -1.0372728 -1.2125517 -0.50748146 -0.60237455 0.9788631
0.7159284 0.9933939 0.39664397 0.908674 0.78163195 0.8085193 1.0759698 0.7207007
00000000: fa43 96be e597 e22a 9bb3 f83d 9391 16bb
00000010: 9bf7 0ebc e3a4 2d38 8d27 0ba8 85e3 139a
00000020: 944e cd3c 1f38 969b a3c4 b73d 51ba 451a
00000030: 50f1 1dbd 34de 1c3f 4098 c096 8c47 922f
00000040: 2ce9 61bc e22f 2395 e1d4 aebd 6776 f096
00000050: 2592 0ebf e07c 7316 1c3f 5b1a 138b 693e
00000060: 40c4 9bbe f2be fabe 626e bf9f 60a9 e018
00000070: 48a2 de18 9a10 82bc 1cc7 f73e c89e 0c99
00000080: e00d f9be be0d 04be c4d5 963e 5308 1bab
00000090: 6cfc e819 1a44 ad9d e754 4418 9a0b 6d1a
000000a0: 9ad1 6dbf a741 1d3f 9a35 69bf 3029 5b3f
000000b0: 9f83 3dbf 0dfc 57bf 0a4a 893f c446 8a3f
000000c0: 3233 8c3f 337e 053f 84b9 0e3f f45d 8abf
000000d0: db56 45bf 7d46 65bf f337 a9be 1214 5bbf
000000e0: 8a5e 44bf 13bc 34bf f6a9 6ebf 0f06 31bf
000000f0: 127c 263e 8cc5 02ab 2cb2 d4bc 381d 283b
00000100: 258a 283c d4af 9c37 390f 3c28 7b9f 0fa2
00000110: 6385 323d c67e d097 065c f0bd a952 8c20
00000120: 9ed4 ba3c 8f69 28bf 985c cba1 682c 58af
00000130: 4c0d 1a3a b473 a19f 8024 98bd 2801 5f1b
00000140: b85a 093f 00c6 2b93 74a7 1497 44d2 6abe
00000150: 4f91 9f3e 2256 013f 58c7 cd98 319d 9d1f
00000160: f002 3f19 1770 ceba e689 05bf 64ad 461d
00000170: 786f ea3e 925a 3b3e 902f 99be 701c 9c2b
00000180: 92e4 5d20 fccb 7999 52b6 289c f4e5 b59f
00000190: e044 5d3f dd8d 03bf 924e 6b3f 3923 34bf
000001a0: 4d1b 233f 5e57 803f 9aab 8fbf 5bc5 84bf
000001b0: e534 9bbf 4eea 01bf 3835 1abf c696 7a3f
000001c0: 1547 373f 104f 7e3f eb14 cb3e dc9e 683f
000001d0: 0819 483f 1ffb 4e3f 61b9 893f d77f 383f

fc.bias f4 [2]
0.10291028 -0.06959302
00000000: a0c2 d23d c986 8ebd
