data/Mutagenicity/pgexplainer/best_model_base_gcn_run_1_explainer_run_1.pt (torch, 6815 bytes, 3 tensors)

0.weight f4 [32, 40]
0.054820135 -0.11949376 0.093455695 -0.10875548 -0.17173842 -0.13811685 0.106078506 0.09421645
0.0132158715 -0.019761736 0.11163367 0.0701121 0.06933878 -0.1319126 0.0006899232 0.118648246
-0.13398984 0.13343076 -0.12857339 -0.07101656 -0.031202683 0.016754778 0.023737758 -0.11262043
0.04799535 0.017028596 -0.039422747 -0.18222062 0.13081232 -0.080783814 -0.10768175 0.13101153
-0.10434505 0.080848776 0.07166448 -0.12788315 -0.14869237 -0.10973251 0.024161048 0.12399564
-0.027825475 -0.06717363 -0.064916074 -0.13217565 0.13560143 -0.021120528 -0.1467382 -0.12957121
0.0766712 0.054794315 0.0799077 -0.038423378 -0.054083936 0.02986536 -0.02388969 -0.0737546
0.01645513 -0.10887369 -0.12770858 -0.054187007 -0.13256584 -0.015615455 0.004852552 0.13192056
0.023429636 -0.02100178 -0.13601921 -0.08482975 -0.047740676 -0.13495634 0.008696734 0.09158608
0.06710399 -0.08727767 -0.061311558 0.13438413 -0.045955013 -0.16302297 -0.020454783 -0.011878798
-0.07835069 -0.033874575 -0.1446597 0.028000318 -0.12942953 0.03448544 0.09803379 -0.12053377
-0.081113555 -0.006894085 -0.020422142 0.072685234 -0.031052852 0.0076493174 -0.06296346 0.03272806
0.025571916 -0.14863013 0.06338725 -0.053744603 0.121054746 -0.1732062 -0.03299773 0.049778234
0.0890365 -0.017936775 -0.10576803 -0.13942237 -0.13872938 0.10610725 -0.15837996 -0.082361855
0.060269672 0.06875479 -0.15837477 0.012390743 -0.0023155767 0.12259617 -0.026390681 0.04609941
0.016031668 0.1699009 0.013024222 -0.06295937 0.058205675 -0.054251082 0.06921743 0.13934541
-0.093608074 -0.08521322 0.031333316 0.019788172 -0.019807851 0.16073085 0.10019767 -0.023445651
0.05244426 0.006312307 -0.071587436 0.09353686 -0.07460041 0.04796956 0.13640745 -0.115309395
0.03609831 0.17518471 0.101193525 -0.032805666 0.054034155 -0.118511766 0.054644767 0.16634956
0.16672249 0.025900183 0.08654802 0.0025488825 -0.014690632 0.032926716 -0.06257095 0.09239942
0.08308203 -0.038945943 -0.031193303 -0.104737505 0.025800614 0.068193376 0.15640414 -0.14555675
-0.1301063 0.009970575 0.15146169 0.0147931045 0.04880648 0.026967889 -0.013729365 0.11715283
0.12206324 -0.08879138 -0.089744516 -0.119346716 -0.034117397 -0.00089593435 0.13650051 -0.1485708
0.11687347 -0.082366124 0.018776733 -0.0028641315 0.09483906 -0.12647589 -0.106533326 0.008344397
0.085231185 -0.07159381 0.054322638 -0.036474418 -0.14196841 0.022724861 -0.030635843 0.09672507
0.08164865 0.08123216 0.07608743 -0.1432293 -0.17339969 -0.0057747765 0.022735685 -0.14576395
0.10492449 -0.03901837 -0.114947155 0.08463726 0.114281446 0.0029135328 -0.073605634 -0.005582237
-0.13864447 0.07320505 0.07549781 -0.052091904 -0.14759941 0.094359696 -0.15132423 -0.10259576
0.07079403 -0.10012673 0.0066381185 0.105437666 -0.04309516 -0.058616616 0.122766644 0.003715141
0.031169266 -0.07337826 -0.15815185 0.0037538914 -0.1162833 -0.104391694 -0.15260242 0.11341172
-0.07664052 0.07605208 0.0627872 0.138628 0.11677109 -0.08165607 0.0995141 -0.05072322
0.035956275 -0.027088815 -0.105206005 0.07767102 -0.07519749 0.18510859 0.093837574 -0.024435503
00000000: 148b 603d 25b9 f4bd b365 bf3d 31bb debd
00000010: 32dc 2fbe 816e 0dbe b03f d93d 8ef4 c03d
00000020: 6287 583c 5de3 a1bc 32a0 e43d ef96 8f3d
00000030: 7e01 8e3d 1914 07be f6db 343a dafd f23d
00000040: a234 09be 13a2 083e bea8 03be 2171 91bd
00000050: c59c ffbc 5141 893c b075 c23c 8aa5 e6bd
00000060: c696 443d 8e7f 8b3c bf79 21bd 0b98 3abe
00000070: aaf3 053e fc71 a5bd 4088 dcbd e327 063e
00000080: dcb2 d5bd 0b94 a53d d4c4 923d cdf3 02be
00000090: d042 18be 70bb e0bd 64ed c53c 6df1 fd3d
000000a0: 40f2 e3bc 5492 89bd b8f2 84bd 0e59 07be
000000b0: 1adb 0a3e f504 adbc 8a42 16be 51ae 04be
000000c0: ca05 9d3d 0170 603d a6a6 a33d d561 1dbd
000000d0: 1e87 5dbd 33a8 f43c 50b4 c3bc a70c 97bd
000000e0: e9cc 863c 2bf9 debd 0ac6 02be 32f3 5dbd
000000f0: 57bf 07be f7d7 7fbc 2802 9f3b 2f16 073e
00000100: 82ef bf3c ed0b acbc 9f48 0bbe 38bb adbd
00000110: ba8b 43bd ff31 0abe bf7c 0e3c 7c91 bb3d
00000120: d16d 893d a3be b2bd d421 7bbd fe9b 093e
00000130: 533b 3cbd 7eef 26be ca90 a7bc 4a9f 42bc
00000140: 5476 a0bd 11c0 0abd ac21 14be ec60 e53c
00000150: 2d89 04be 9b40 0d3d f1c5 c83d 69da f6bd
00000160: dd1e a6bd c7e7 e1bb 564c a7bc ffdb 943d
00000170: 8d62 febc 20a7 fa3b fdf2 80bd dc0d 063d
00000180: 327c d13c 7f32 18be 2dd1 813d 4d23 5cbd
00000190: 8deb f73d f75c 31be a128 07bd 43e4 4b3d
000001a0: c558 b63d 25f0 92bc e99c d8bd bdc4 0ebe
000001b0: 130f 0ebe c24e d93d 5b2e 22be 55ad a8bd
000001c0: 55dd 763d 50cf 8c3d ff2c 22be 8b02 4b3c
000001d0: eec0 17bb b313 fb3d 4531 d8bc bcd2 3c3d
000001e0: d854 833c 80fa 2d3e 8c63 553c d8f0 80bd
000001f0: 1369 6e3d 6236 5ebd dec1 8d3d 90b0 0e3e
00000200: 97b5 bfbd 4584 aebd 5d57 003d ce1a a23c
00000210: 1344 a2bc a196 243e 7034 cd3d 1811 c0bc
00000220: cbcf 563d 78d7 ce3b 6f9c 92bd 4190 bf3d
00000230: 1ac8 98bd bb7b 443d 65ae 0b3e 5527 ecbd
00000240: d2db 133d 9f63 333e 8d3e cf3d 3c5f 06bd
00000250: eb52 5d3d 4cb6 f2bd 31d3 5f3d 8a57 2a3e
00000260: 4db9 2a3e 9f2c d43c 1740 b13d 270b 273b
00000270: fab0 70bc 2ade 063d 3325 80bd e83b bd3d
00000280: e926 aa3d c885 1fbd 1989 ffbc 9e80 d6bd
00000290: cf5b d33c f8a8 8b3d 6828 203e d40c 15be
000002a0: 963a 05be 9f5b 233c c618 1b3e c75e 723c
000002b0: 4ee9 473d c3eb dc3c 21f1 60bc d3ed ef3d
000002c0: 4bfc f93d 41d8 b5bd f9cb b7bd 0d6c f4bd
000002d0: afbe 0bbd 23dd 6aba cac6 0b3e f222 18be
000002e0: 5c5b ef3d 92af a8bd aad1 993c 27b4 3bbb
000002f0: fb3a c23d e582 01be 252e dabd f0b6 083c
00000300: b08d ae3d c79f 92bd 6a81 5e3d 3366 15bd
00000310: 2b60 11be 7d29 ba3c 05f8 fabc cb17 c63d
00000320: 6837 a73d 0c5d a63d bad3 9b3d b4aa 12be
00000330: b08f 31be 563a bdbb 3040 ba3c 2543 15be
00000340: a7e2 d63d bad1 1fbd 6a69 ebbd 4d56 ad3d
00000350: 640c ea3d f8f0 3e3b 8dbe 96bd 33eb b6bb
00000360: d1f8 0dbe 87ec 953d 999e 9a3d 525e 55bd
00000370: 4d24 17be a83f c13d bdf4 1abe ba1d d2bd
00000380: 76fc 903d 3e0f cdbd 9384 d93b b4ef d73d
00000390: 8d84 30bd fa17 70bd 146d fb3d b979 733b
000003a0: b056 ff3c 5747 96bd 8ff2 21be d903 763b
000003b0: f025 eebd 50cb d5bd cf43 1cbe 6744 e83d
000003c0: b4f5 9cbd 31c1 9b3d 9396 803d 80f4 0d3e
000003d0: ae25 ef3d 4c3b a7bd 0cce cb3d 27c3 4fbd
000003e0: e346 133d 5de9 ddbc 3f76 d7bd fc11 9f3d
000003f0: 2401 9abd 1b8d 3d3e ea2d c03d f72c c8bc

0.bias f4 [32]
-0.17925087 0.025419349 -0.1620143 0.13208155 -0.13808763 -0.04393428 -0.09213611 -0.0795275
-0.1519029 -0.058897134 0.03933871 0.04761029 -0.09726042 0.12366811 -0.030380161 -0.03804651
0.11362835 0.1747725 0.11224916 -0.118076004 -0.08019107 0.0012824181 0.02802042 0.15058061
0.06491541 -0.085285746 0.17653964 0.024107756 0.059525948 -0.049800146 0.14412817 -0.07700957
00000000: 8a8d 37be 3d3c d03c 14e7 25be 6340 073e
00000010: d866 0dbe 6ef4 33bd dbb1 bcbd 50df a2bd
00000020: 6f8c 1bbe 1f3e 71bd a121 213d 0203 433d
00000030: 7930 c7bd b545 fd3d d1df f8bc a8d6 1bbd
00000040: fbb5 e83d 90f7 323e e3e2 e53d d5d1 f1bd
00000050: 373b a4bd d016 a83a 148b e53c ce31 1a3e
00000060: 5ff2 843d 4baa aebd cfc6 343e a17d c53c
00000070: 7bd1 733d 3dfb 4bbd 5696 133e 32b7 9dbd

2.weight f4 [1, 32]
0.054547507 0.1543662 0.031746242 -0.09140743 -0.02000148 0.10608678 -0.1331736 -0.11881521
0.006630405 -0.107417345 -0.078096084 -0.09304478 0.07186903 -0.18205152 -0.18117061 0.11569867
-0.055139232 -0.18504336 0.06236161 -0.1431075 -0.04046478 0.08310855 -0.12990455 -0.16604136
0.0013483136 -0.1172813 -0.07196477 0.10834061 0.014822524 0.031250466 -0.18887733 -0.14003816
00000000: 356d 5f3d 2c12 1e3e 5908 023d d233 bbbd
00000010: 25da a3bc 0744 d93d a95e 08be 6455 f3bd
00000020: de43 d93b a0fd dbbd d7f0 9fbd 438e bebd
00000030: 1230 933d b76b 3abe ca84 39be 6df3 ec3d
00000040: add9 61bd 027c 3dbe e36e 7f3d c68a 12be
00000050: 66be 25bd d134 aa3d b305 05be bf06 2abe
00000060: e6b9 b03a 2e31 f0bd 4462 93bd afe1 dd3d
00000070: 2cda 723c 7d00 003d 0f69 41be 2a66 0fbe
