data/Mutagenicity/tagexplainer_2/best_model_base_gcn_run_1_explainer_run_1_downstream.pt (torch, 5527 bytes, 5 tensors)

layers.0.weight f4 [20, 20]
000000 c6 f8 8e bd 3e e2 7a bd 03 0c 4e 3e 56 54 59 3e
       -0.069810435 -0.061250918 0.2012177 0.21223578
000010 bd 5a 9e 3e 5d 3b 0e 3d ce 27 9f bd 9a 1a 88 be
       0.30928603 0.034724582 -0.07771264 -0.26582795
000020 40 99 9c 3e b9 55 9f bd 6f 38 53 3e 62 01 25 bd
       0.3058567 -0.07780022 0.20626996 -0.040284522
000030 0e e7 9f bd f4 ae cb 3d f7 b7 42 bd 0a ba a3 bd
       -0.07807742 0.09945479 -0.047538724 -0.079944685
000040 89 4e 15 3d 62 a9 50 bd 9b 86 86 3e db 5d 1a be
       0.03645185 -0.050942786 0.2627457 -0.15074866
000050 28 8d 8b 3e 32 a7 09 be d5 2f a5 3d 32 7b f0 bd
       0.2725613 -0.13442686 0.08065764 -0.11742248
000060 a7 8e 02 3d 34 ea ad 3e 5c d2 87 3e 5e 27 72 3e
       0.031874325 0.33967745 0.2652768 0.2364783
000070 87 66 87 bd b3 28 98 3d 9b 78 2c be a0 d1 57 3e
       -0.066113524 0.07429638 -0.16842882 0.2107606
000080 09 70 5e 3e 86 d5 0d be c6 e3 91 3e 49 85 2d 3e
       0.21722426 -0.13850984 0.2849409 0.16945376
000090 c6 92 80 bd d7 33 11 be 93 64 8a bd 65 a5 0d bc
       -0.06277995 -0.14179932 -0.06757464 -0.00864539
0000a0 bc 12 06 bd 3a 14 ff 3d e2 38 44 be 91 28 d6 bd
       -0.03273271 0.1245503 -0.19162324 -0.10456956
0000b0 f7 14 47 bd d2 2e b1 3d 06 0f 72 3e 91 a4 a7 3c
       -0.048603978 0.086515084 0.23638543 0.020464214
0000c0 6d e3 4c bc d6 fe e4 bd 91 0b ff 3c 18 92 c9 bc
       -0.012505394 -0.111814186 0.031133445 -0.024605796
0000d0 c1 d7 9f 3e d9 eb 4c 3e 1f 4d f4 3d 60 34 7a 3e
       0.31219295 0.20011844 0.11928772 0.24434042
0000e0 3f 81 f9 bd 84 aa f0 bd 35 d7 e3 bd 2e 46 19 3d
       -0.12182855 -0.11751273 -0.11125032 0.037420444
0000f0 10 08 38 3c 6e 14 3b 3e a9 9a 3d 3e 66 96 5f 3e
       0.011232391 0.18269512 0.1851603 0.21834716
000100 b4 93 a6 3e a7 4a 03 3e 39 30 22 bd 49 c5 0d be
       0.32534564 0.12821446 -0.03959677 -0.1384479
000110 a7 4a 74 3e 1e d9 94 3e 87 f2 b5 bd d1 cf 23 bd
       0.23856603 0.29071897 -0.08884149 -0.03999311
000120 0a 84 93 3d 01 6e 68 bd 0d 59 20 3e da 1e a6 bd
       0.07202919 -0.056745533 0.1565897 -0.08111353
000130 0c 84 8c 3e c6 60 ce bc ae c4 d8 3b eb 63 9f bd
       0.27444494 -0.02519263 0.006615243 -0.0778273
000140 61 fc 06 bc 0f 80 15 bd 6d d1 16 3e 0a bd 5b 3e
       -0.008238883 -0.03649908 0.14728327 0.21458831
000150 3a 0b 65 3d de 84 49 3d be 08 58 be e6 99 17 3d
       0.05591891 0.049198978 -0.21097085 0.037012003
000160 f4 d9 ce bd 16 bb 8b 3e 89 56 0a 3e 3d 54 6d be
       -0.10100165 0.27291173 0.13509573 -0.23176666
000170 08 a1 ad 3d 6a cb 8b 3d c2 c9 4f 3d 7b 04 90 be
       0.0847798 0.068259075 0.05072952 -0.28128418
000180 02 e3 fc 3d 4b 66 81 3d 52 7a 2e 3d b1 cc 63 bd
       0.12347986 0.06318339 0.042597122 -0.05561513
000190 52 c0 7e 3e 84 dc 85 3d c8 f5 dd 3d 46 87 3b 3d
       0.24878052 0.06536201 0.10837895 0.045783304
0001a0 43 72 25 3e 5c 44 1b 3e cd 83 a9 bc f9 fc 3c 3e
       0.16156869 0.15162796 -0.02069273 0.18455876
0001b0 1f 28 89 3d 4e b9 d4 3c 06 94 1c bd 66 9e ed 3d
       0.066971056 0.025967266 -0.038227104 0.11602478
0001c0 f1 97 82 3e d2 42 3c be 04 46 60 3e 63 84 3b 3e
       0.25506547 -0.18384865 0.21901709 0.1831222
0001d0 ae 90 9e bd 0c 96 4f be 22 a9 55 3c 53 0b a1 3e
       -0.07742439 -0.20272082 0.013040813 0.31453952
0001e0 ff 85 fb bc a3 cc c3 3c 7a be 8d 3e 5c 4d 33 3d
       -0.030703543 0.02390129 0.27684385 0.043774948
0001f0 18 54 a5 3d 78 45 97 be 40 81 3c 3e f5 ee b4 bd
       0.0807268 -0.29545188 0.1840868 -0.0883464
000200 b6 54 e0 3c af 67 1d be cb 6a f7 bc 2a a4 20 3e
       0.027384143 -0.15371583 -0.03020229 0.15687624
000210 8a 72 d6 bd 5c 04 73 3e 18 1e ab bd a8 d2 f3 3d
       -0.10471065 0.23732132 -0.08355349 0.11905414
000220 ec 40 0c be 3f a5 e3 3d 28 17 4d 3a a6 03 eb bc
       -0.1369664 0.111155026 0.000782358 -0.028688263
000230 33 f5 83 3e e4 99 66 3e 0c 53 d8 bd 30 6c 36 be
       0.2577301 0.22519642 -0.10562715 -0.17814708
000240 b9 e0 30 be 1d f7 ea bc 5e 5a 02 bc bc 34 55 3e
       -0.17273225 -0.028682286 -0.0079561155 0.20820898
000250 d0 b4 32 be 86 85 1b bd f6 7f eb bd 94 16 99 bc
       -0.17451787 -0.037969135 -0.11499016 -0.018687524
000260 64 8e 81 3e d7 1c c7 3c 28 0f 90 3e cd fe 8b 3e
       0.25303948 0.024305744 0.28136563 0.27342835
000270 84 47 17 bc 1e 32 a7 3d 06 e0 d2 3d 01 ca 69 3e
       -0.009233359 0.08163856 0.10296635 0.22830965
000280 d9 5e f6 3d 77 4e db bc 34 52 01 3e ed 41 9b bb
       0.120298095 -0.026770813 0.12629014 -0.0047380836
000290 9c 7f f7 bd 06 c5 a5 3e 81 1b 95 3c 94 f3 1a 3d
       -0.120848864 0.3237688 0.018201591 0.03782995
0002a0 dc 13 42 be c7 0d 04 be 29 4b 83 3d 63 3c 8c 3e
       -0.18952888 -0.1289588 0.0641082 0.2738982
0002b0 4f ce 67 3e 30 39 13 be 21 6f 9c 3c 1b 8c 6a 3e
       0.22637294 -0.14377284 0.01909596 0.22905008
0002c0 e8 40 2d be b4 7f 6e be 57 0a e9 bd 98 29 0e be
       -0.16919291 -0.23290902 -0.11378925 -0.13883054
0002d0 9d 1e 24 bd 47 c7 b9 3c 0e 7a 0a be af 98 9a 3d
       -0.040068258 0.02267803 -0.13523123 0.07548653
0002e0 14 dd f0 bc fa 47 90 3d 5f 9e 26 bd ca b9 a7 bd
       -0.029402293 0.070449784 -0.04067838 -0.08189733
0002f0 1b 8f d7 bc d1 62 a7 bd 55 3a 99 3e 4f e2 c4 bd
       -0.026313355 -0.081731446 0.29927316 -0.096134774
000300 8b 0d 45 3c 71 b2 82 be 3a 70 71 3c 47 4b 72 bd
       0.012027155 -0.25526765 0.01473623 -0.05915382
000310 bb a8 43 be 60 65 40 be 5e ec 4f 3e a6 95 6c 3e
       -0.19107334 -0.18788671 0.2030501 0.23103961
000320 bb bb 0d bc 6e 60 66 3e 5c f8 8f bd 46 f9 18 be
       -0.008650715 0.22497723 -0.07029793 -0.1493884
000330 48 da c5 bd 68 2d 9a 3e 0b fd 95 3e 61 60 8d 3e
       -0.096607745 0.30112767 0.2929462 0.27612594
000340 1c b3 6d bc a5 8a a1 3b 84 f3 19 bd de f6 2f 3e
       -0.014508035 0.004929858 -0.03758575 0.17184016
000350 b5 a1 98 bc 42 a7 30 be 81 4b 04 3d 73 f9 92 bd
       -0.018631795 -0.17251304 0.03229857 -0.07176485
000360 c8 98 f5 bd 52 c6 79 3c 5e 16 84 bc 98 df 3c 3e
       -0.11992031 0.015245037 -0.016123947 0.18444669
000370 37 32 93 3b 46 71 96 3e 39 ca bd 3d 1b 19 f4 bd
       0.00449207 0.29383296 0.092670865 -0.11918851
000380 1a cb 13 be 17 65 a8 3e 53 97 f3 3d e8 ef d9 3c
       -0.14432946 0.32889625 0.11894097 0.026603654
000390 6e 51 a7 3d 3c 57 b2 3d af 1f d2 3c 31 c2 0c 3e
       0.08169828 0.08708045 0.025649874 0.13745953
0003a0 8e c8 8c 3e 61 1e 2a be 52 4b 69 3e bb 1e 7c bd
       0.2749676 -0.16613151 0.22782639 -0.061552744
0003b0 2d 47 0c 3e a7 30 16 be 08 c1 72 be b4 10 ce bd
       0.13699026 -0.14666997 -0.23706448 -0.100617796
0003c0 69 40 4e bd 33 f5 e9 bd 89 c9 29 bd 76 4c a6 bc
       -0.050354395 -0.11423721 -0.041451965 -0.020300131
0003d0 90 c8 27 bc c5 3f 0a bc 9d 6c 30 3e b2 d8 b0 3e
       -0.010240689 -0.008438055 0.17228933 0.34540325
0003e0 e9 01 92 3d d6 c8 bf bb b3 a2 f6 3d d8 50 13 3e
       0.071292706 -0.005852799 0.12042751 0.14386308
0003f0 45 d0 04 3c cd 4a 4a 3e de 03 9d 3e 2c 51 72 bd
       0.008106296 0.19755097 0.30667013 -0.059159443

layers.0.bias f4 [20]
000000 fc 73 1b 3d aa bc 21 bd ec d7 bf 3d 91 10 2a 3d
       0.03795241 -0.039486565 0.09367356 0.041519705
000010 c7 b8 8c 3e cd a7 94 3e 1a af 4a 3e 07 39 91 bd
       0.27484724 0.29034272 0.19793358 -0.07090955
000020 fb 9b 02 3e e7 4f 85 3d d8 b0 67 3e 76 f9 1d be
       0.12754814 0.06509381 0.22626054 -0.15427193
000030 cc d1 3d 3e 28 13 a6 3d 48 64 61 3e 37 e7 81 bd
       0.18537062 0.081091225 0.2201091 -0.06342929
000040 57 cd 92 3e e0 88 9b 3e 43 6e e8 3d ce bd 45 be
       0.28672287 0.30377865 0.11349156 -0.19310686

layers.1.weight f4 [20, 20]
000000 ea 06 e2 bd 1c a7 16 3e e6 ff b0 3e 37 a2 de bd
       -0.11036475 0.14712185 0.34570235 -0.10870784
000010 b4 33 ca 3d 51 2a 4b 3e 0d 19 05 be 70 f3 b2 3e
       0.09873143 0.19840361 -0.12997837 0.34951353
000020 0a 4e aa 3d 5d de 9d 3e 0a d0 b4 3e 3f 31 8a 3d
       0.08315666 0.30833712 0.3531497 0.06747674
000030 df d7 8f 3e 4e 6e 78 3e 7f 81 1f be 76 6c fe bd
       0.28094384 0.24260828 -0.15576743 -0.12423031
000040 b9 6b bd be 46 1d 75 3d 2f fe 86 be f2 b7 67 3d
       -0.36996248 0.05984237 -0.26365802 0.05657191
000050 90 2f e3 3d b1 00 47 be 31 5e 97 be 7f 05 aa 3e
       0.11093056 -0.19433858 -0.2956405 0.33207318
000060 7b 6a 91 3e 23 4f 83 bd 18 cc 12 bc 9f 2d a3 3d
       0.2840155 -0.064115785 -0.008959793 0.07967686
000070 27 b4 35 be 38 8a 2b be e9 38 a9 bd 29 d8 c5 3b
       -0.17744504 -0.16751945 -0.08262808 0.006037731
000080 7d be 2e be 96 12 b7 be 09 00 2d 3e 27 86 93 3e
       -0.17064853 -0.35756367 0.16894545 0.28813288
000090 58 4d 41 3d ad 44 90 3e 8b c6 8e 3e 9c a3 20 3d
       0.0471929 0.28177395 0.2788585 0.03921853
0000a0 f8 ca a7 3d 9f 73 f5 bd 5e b8 0c be 03 e5 1c be
       0.0819301 -0.119849436 -0.13742206 -0.15321736
0000b0 4f 2f a6 3d c0 57 64 bd fa 66 6e 3d 84 2d d5 bd
       0.08114492 -0.055747747 0.058203675 -0.10409072
0000c0 3a 1a 8a bd 7d 98 2b bc 47 2d 8e be 64 67 ea bd
       -0.067432836 -0.010473368 -0.2776892 -0.114455014
0000d0 0c e5 44 be ac 3f 39 be 8e 94 0e 3e 9c 3c 0b be
       -0.19228 -0.18090695 0.13923857 -0.1359734
0000e0 82 1e 1a 3c 4a 15 3a 3c f1 a9 b4 3d be 51 52 3e
       0.009406688 0.011357615 0.08821476 0.20538995
0000f0 54 99 a8 be 3f 40 9f 3e a9 c0 91 3e b7 5d 06 3e
       -0.3292948 0.31103703 0.284673 0.13121687
000100 f5 b3 f2 bc 40 4b 92 3e 5c 54 ff bd b8 90 73 bd
       -0.029626826 0.28573036 -0.12467262 -0.059464186
000110 b3 90 4a 3e 15 6e e1 3d 11 1d 18 bd 4e b6 b7 3d
       0.19781761 0.110073246 -0.037137095 0.08970319
000120 ef bb 1e 3d af a9 81 bd 3a f5 be be a3 93 52 3d
       0.038753446 -0.06331193 -0.37296468 0.05141033
000130 7b 9a 55 be 1b 12 58 3e 13 8a 96 be f8 50 ef bd
       -0.20859711 0.21100657 -0.29402217 -0.116853654
000140 7b 8c b2 3d b3 d8 98 3c 1c 52 b1 bc 0d e2 dc 3d
       0.08718201 0.018658018 -0.021645598 0.10785303
000150 2a e5 a2 3e a9 3f 28 3e ef 10 52 3e 23 9d 1b be
       0.31815463 0.16430534 0.20514272 -0.15196662
000160 7c ae c3 be 79 ed b3 be 5e ff 04 3c 50 03 86 be
       -0.3821906 -0.35142115 0.008117525 -0.26174402
000170 53 a2 a7 3d c3 57 4d be 81 2b e8 3d f9 8e 17 bd
       0.08185258 -0.2005301 0.11336423 -0.037001584
000180 59 6f 10 3e 9a ff 4e bd 56 f0 8f 3e d7 fc 2f be
       0.14104976 -0.05053673 0.2811305 -0.17186294
000190 20 d4 80 3e df 43 2b 3d ba a2 74 3c ed 31 dd 3d
       0.2516184 0.041812774 0.014931375 0.10800538
0001a0 72 b7 7b bc 56 ec 4b be f2 dc 87 be a0 e2 b5 be
       -0.015363561 -0.19914374 -0.26535755 -0.35524464
0001b0 81 7c db 3d d4 90 16 bd d8 d8 24 bd e9 8d 08 be
       0.107171066 -0.036759213 -0.04024586 -0.13335384
0001c0 e0 28 68 be 9c b2 6f 3d 8d 85 83 bd 68 d6 99 bc
       -0.22671843 0.058519945 -0.06421957 -0.018778995
0001d0 e5 c2 ba 3e 03 b6 6e bc f7 c0 03 3e 40 ae 49 be
       0.36476818 -0.014569762 0.12866579 -0.19695377
0001e0 64 84 dd be a1 c3 c0 3d f6 a4 64 3e 18 92 d8 bd
       -0.4326507 0.09412313 0.22328553 -0.1057474
0001f0 42 9d 94 bd 6a 35 aa 3e d3 56 82 be 54 50 ef 3d
       -0.07256557 0.33243877 -0.25456867 0.11685243
000200 62 09 a8 3e fe d7 c3 3e 5b 3f 15 3e f4 65 9b 3e
       0.3281966 0.38250726 0.1457495 0.30351222
000210 2d 19 8a 3b 3f eb a4 3e 1a 94 07 be ae 0b f7 3b
       0.004214427 0.3221073 -0.1324009 0.007539234
000220 ee 36 c7 bb 24 c0 00 bc e3 9b 13 3d 31 7a 4b 3d
       -0.006079546 -0.00785831 0.036037337 0.049677078
000230 8c 92 bb 3e 8f 14 0c 3e 4c e9 ca 3c 62 eb 0c b9
       0.36635244 0.13679717 0.024769448 -0.00013439127
000240 37 0b 49 3d 95 81 48 bc 15 22 f7 3d 76 9c 6e be
       0.04908296 -0.012237926 0.120670475 -0.23301873
000250 ae 78 1a be 09 d7 96 be f2 af 76 be c7 3c 2b 3d
       -0.15085098 -0.29460934 -0.24090555 0.04180601
000260 9b 4b c6 bd 77 bc 2b bd 67 d5 e9 3e 74 f8 b9 3d
       -0.09682389 -0.04192778 0.45670626 0.09080592
000270 7d 9b 95 3e 63 14 9b bb ea 57 6d 3e 1f 58 d1 bc
       0.2922019 -0.004732655 0.23178068 -0.025554715
000280 c0 61 df 3c b9 ed c3 bd 3b c1 0c 3c 96 0a f8 bd
       0.02726829 -0.095668264 0.008590992 -0.12111394
000290 5b 59 2f 3e ac a1 07 3d 91 0b 9f bd 19 ad 4f 3d
       0.1712393 0.033113167 -0.07765878 0.05070219
0002a0 e4 2e 10 be 10 06 1b bd c3 a1 da 3c 69 7c 43 be
       -0.14080387 -0.03784758 0.026688462 -0.19090427
0002b0 5b ad ee bd 19 a3 19 be 27 0d 9c 3c 04 ff 2e 3d
       -0.11654159 -0.15003623 0.01904924 0.04272367
0002c0 81 5b 1b bd 0f 53 17 3c 02 26 b5 bd 86 48 42 be
       -0.03792906 0.009236111 -0.0884514 -0.18972978
0002d0 77 12 86 be 6a c9 23 3e a1 93 13 3e 53 0c 12 3e
       -0.26185963 0.15994802 0.14411785 0.14262514
0002e0 e1 8f 36 be 8c 3b 15 3e e8 ef 1b be 1c d8 a8 3e
       -0.17828323 0.14573497 -0.15228236 0.32977378
0002f0 c2 b8 ff 3d 49 bb e4 3e f9 09 6a 3e 05 eb bc 3e
       0.12486412 0.44674137 0.22855367 0.36898056
000300 67 77 15 3e 18 79 6c bd 29 e2 68 be 57 49 ea bd
       0.1459633 -0.05773267 -0.22742523 -0.1143977
000310 08 2e 33 be dd e1 92 3d d7 b7 6d be c0 d2 56 3a
       -0.17498028 0.07171986 -0.2321466 0.00081948563
000320 2c b9 96 3d 1d 8c 75 be b5 ce 5a be 01 38 90 3e
       0.073595375 -0.2397923 -0.21367915 0.28167728
000330 cf 8c 62 3e 65 7e 8d 3d 9c e6 e1 bd 8a a2 e7 bd
       0.22124027 0.069088735 -0.110303134 -0.11310299
000340 e3 cf 62 be 15 98 cc be 1b 4e 48 bd 43 77 fa 3d
       -0.22149615 -0.3995978 -0.048902612 0.122297786
000350 0e ad 5e 3d 70 58 c5 be 2a 3b d1 3e f6 f7 09 3e
       0.054364257 -0.38544035 0.4086545 0.13473496
000360 75 89 11 3e d6 55 9c 3d 79 b8 52 3e dc 0e 47 3d
       0.14212592 0.076335594 0.20578183 0.048598155
000370 03 13 b8 bb be 1f ca bd 9b c7 c1 3c 23 8f c2 bd
       -0.0056175007 -0.098693356 0.02365475 -0.094999574
000380 7a a7 c1 3c b2 9b 8f 3d 92 f2 5e be 6b 66 5e bd
       0.02363943 0.070121184 -0.2177222 -0.054296892
000390 ca 80 7e 3d c4 86 d8 3d 4e e5 7a be 12 fc 19 3e
       0.06213454 0.105725795 -0.24501535 0.15037563
0003a0 c9 b6 07 3d eb 10 60 bc 03 f1 e8 3d 44 13 f7 bd
       0.033133302 -0.013675909 0.11374094 -0.120642215
0003b0 98 67 17 be ed d8 57 be ed d4 c1 bd be e6 28 be
       -0.14785612 -0.21078844 -0.094644405 -0.16494271
0003c0 31 4a 0d bd bd 25 27 be c0 ee 52 bc 39 86 47 be
       -0.034494583 -0.1632299 -0.012874305 -0.19484796
0003d0 e7 19 be bd e4 72 89 bd 44 db 43 3e 0c b3 0a be
       -0.09282284 -0.06711367 0.19126612 -0.13544863
0003e0 0c 49 4e be ff fc 47 be 20 7e 54 be fb b0 0f be
       -0.20145053 -0.19530104 -0.20751238 -0.14032356
0003f0 64 22 5d be 21 7b a4 bd 15 f5 b4 3c 5a ae 31 3e
       -0.2159515 -0.080312975 0.02208952 0.17351666

layers.1.bias f4 [20]
000000 f2 28 26 3e eb 6d 56 bd dc 12 d1 bd e2 63 fa 3d
       0.16226557 -0.05235092 -0.10208675 0.122260824
000010 0a 33 97 3e 37 78 60 be ac 8c c7 3d 7f 6f 8e 3e
       0.29531127 -0.21920858 0.09743628 0.2781944
000020 7d 83 4b be 9c 81 03 3e a9 c5 a4 3e 9b 32 de 3d
       -0.19874378 0.12842411 0.32182053 0.10849496
000030 ac 4a ef bd 91 6e 17 be 34 01 41 3e 8a a4 bf bd
       -0.116841644 -0.14788271 0.18848115 -0.09357555
000040 ea da 76 3e 7e af 85 bc 54 e1 25 3e 47 c3 f8 bd
       0.24106947 -0.016319033 0.16199237 -0.12146621

layers.2.weight f4 [1, 20]
000000 d0 67 ae be 4c 8f 76 3e 23 b5 3b be 31 20 93 be
       -0.34063578 0.24078101 -0.18330817 -0.28735498
000010 8e c0 be 3e f0 5c b1 3e fb 9f 6a be e1 f3 82 3e
       0.37256283 0.34641218 -0.2291259 0.2557669
000020 3c ba 01 be a7 cc d7 be 97 41 8a 3e ba c1 54 3e
       -0.12668699 -0.42148325 0.27003166 0.20777026
000030 81 a8 03 be 5a 25 b9 3e 9e 87 9b bd c5 b1 01 3e
       -0.12857248 0.3616131 -0.07594226 0.1266547
000040 5c df fd 3e 2f f5 a5 3e f6 c6 6a be c7 f6 4c be
       0.49584472 0.32413623 -0.2292746 -0.20016013
