data/Mutag/tagexplainer_1/best_model_base_gcn_run_1_explainer_run_1.pt (torch, 106327 bytes, 5 tensors)

emb_linear1.0.weight f4 [600, 40]
0	0x3d26807b	0.040649872
1	0xbd8bf9f4	-0.06834784
2	0xbe0061e4	-0.12537342
3	0xbc94ecca	-0.018179316
4	0xbe0b2b1c	-0.13590664
5	0x3d9f8649	0.07789285
6	0xbdd6e326	-0.10492544
7	0xbd6346e0	-0.055487514
8	0xbe1e85f4	-0.15480787
9	0xbcb4298b	-0.021992465
10	0xbd47f9c7	-0.04882219
11	0x3db2ae21	0.08724619
12	0xbd0be178	-0.03415057
13	0x3dd9fd2b	0.10643991
14	0x3e0b618c	0.1361143
15	0x3cf82591	0.03029135
16	0xbd572e87	-0.052534606
17	0xbe03b96c	-0.12863702
18	0xbde28f7b	-0.11062523
19	0xbd5d3750	-0.05400783
20	0xbdce591c	-0.1007559
21	0x3dab7495	0.08371846
22	0xbd51174d	-0.051047612
23	0xbb8a1815	-0.0042142966
24	0x3c065277	0.008198372
25	0xbe0be6d1	-0.13662268
26	0x3e07021d	0.131844
27	0xbd7785e6	-0.06043043
28	0xbe020a3e	-0.1269922
29	0xbb23da59	-0.0025001972
30	0xbe100174	-0.14063054
31	0x3caed6fe	0.02134275
32	0xbdd18a31	-0.10231436
33	0xbd0e079d	-0.03467523
34	0xbd45d545	-0.048299093
35	0x3dea22ad	0.11432395
36	0x3df9e6a8	0.12202197
37	0x3e208127	0.15674268
38	0x3c9c377f	0.019069431
39	0x3dcb2237	0.09918635
40	0xbe04df10	-0.12975717
41	0xbdd93828	-0.10606414
42	0x3dae4523	0.085092805
43	0x3d0c41d7	0.034242477
44	0x3d3a1732	0.045432277
45	0x3db91bb5	0.09038488
46	0x3dced74e	0.1009966
47	0x3d9b98d0	0.07597506
48	0xbd68b207	-0.056810405
49	0xbd4a236c	-0.049350187
50	0x3d086542	0.033299692
51	0x3e0540c1	0.13012983
52	0xbc48a22b	-0.012245695
53	0xbd40c728	-0.04706493
54	0x3db68dff	0.08913802
55	0x3dda52af	0.10660302
56	0xba79ac01	-0.0009524227
57	0xbd37b7d8	-0.04485306
58	0xbe214d99	-0.15752257
59	0x3c2b58cd	0.0104581835
60	0x3d4df25f	0.05027997
61	0xbdedbbdd	-0.11608098
62	0xbdf06a2a	-0.11738999
63	0xbe23934a	-0.15974155
64	0x3e003835	0.12521441
65	0x3e17c803	0.14822392
66	0x3e203c43	0.15647988
67	0x3e108b55	0.14115651
68	0xbc742ff4	-0.014904011
69	0x3d900721	0.0703261
70	0x3dc315e7	0.09525662
71	0xbd25d0ac	-0.040482208
72	0xbdba906a	-0.09109576
73	0x3e06c62e	0.13161537
74	0xbc721413	-0.014775294
75	0x3d71dc2d	0.059047867
76	0xbd95e7be	-0.07319592
77	0xbda70ac0	-0.08156347
78	0xbcf26ff6	-0.029594403
79	0x3be20f13	0.0068987696
80	0x3dbf91ed	0.09354005
81	0x3dd25b21	0.10271288
82	0xbca2bf0c	-0.019866489
83	0x3e1ed64b	0.15511434
84	0xbda8f9be	-0.082507595
85	0x3c2e1f77	0.010627619
86	0xbdc96ccc	-0.098352045
87	0x3ce1b645	0.027552733
88	0x3e155a09	0.14585127
89	0xbe0557a4	-0.13021713
90	0x3d185957	0.037194576
91	0xbe14cc81	-0.14531137
92	0xbd1197f3	-0.0355453
93	0xbd983061	-0.074311025
94	0x3b04af35	0.0020246033
95	0xbddd1954	-0.107958466
96	0x3d2c80ef	0.04211515
97	0xbe16cdd9	-0.14726962
98	0x3d0df925	0.03466143
99	0xbd76b09e	-0.06022703
100	0xbdbe2e69	-0.09286196
101	0x3e09428f	0.13404296
102	0x3c8bd4fc	0.017069332
103	0xbdd98a16	-0.10622041
104	0xbdb31c82	-0.08745672
105	0xbd907a6f	-0.07054602
106	0xbdbf9bfa	-0.09355922
107	0x3ca02a9b	0.019551566
108	0x3b823d86	0.0039746193
109	0x3e0d269b	0.13784258
110	0x3bcdeb1f	0.006284132
111	0xbda92905	-0.08259777
112	0x3e0b383e	0.13595673
113	0x3d22de46	0.039762758
114	0xbd048499	-0.032353017
115	0x3de4c61c	0.11170599
116	0x3e057d32	0.1303604
117	0xbe084df1	-0.13310982
118	0xbe05cf32	-0.1306732
119	0xbdd19fd3	-0.10235562
120	0xbe0b3c2a	-0.1359717
121	0xbd424e82	-0.047438152
122	0x3d6d1380	0.057879925
123	0xbe130fdb	-0.14361517
124	0xbe1ff40d	-0.15620442
125	0xbe0b6abc	-0.13614935
126	0xbdaa7ae5	-0.083242215
127	0x3dc79ab6	0.09746306
128	0x3e0dbdef	0.13841985
129	0x3e201f3b	0.15636913
130	0x3ae1c595	0.0017225022
131	0xbe0920e2	-0.1339145
132	0x3e1e2a76	0.15445885
133	0xbdd9ab46	-0.10628371
134	0x3d6d3152	0.057908364
135	0x3d9e357b	0.07725044
136	0x3d40261f	0.046911355
137	0x3d4de0dd	0.050263274
138	0xbe1709b5	-0.14749797
139	0xbd5d45f8	-0.054021806
140	0xbdd3f1f7	-0.103488855
141	0x3ddfa38b	0.10919865
142	0xbdb7fa9e	-0.08983348
143	0xbb0ae37c	-0.002119272
144	0x3e0e3370	0.1388681
145	0x3df5706e	0.11984335
146	0xbde8fac0	-0.11375952
147	0xbe0710de	-0.13190028
148	0x3dfcac89	0.12337596
149	0x3d3a62cc	0.045504376
150	0xbdfbaf44	-0.12289289
151	0x3e0a3297	0.13495861
152	0xbde9c5f7	-0.11414712
153	0x3e0c2922	0.13687566
154	0x3de4a008	0.11163336
155	0x3de53ad9	0.11192865
156	0xbcfe97d6	-0.03107826
157	0x3c6124dc	0.013741698
158	0xbe06e3c9	-0.1317283
159	0x3db300ca	0.08740385
160	0x3c155e43	0.009116712
161	0x3defc953	0.117083214
162	0xbd8880d1	-0.06665195
163	0x3e1deddf	0.15422772
164	0x3dd46dfd	0.10372541
165	0xbd356a7e	-0.044291012
166	0x3d2dc546	0.042424463
167	0xbdefa5b1	-0.11701525
168	0xbddb410d	-0.10705767
169	0xbdded4bd	-0.1088042
170	0xbdba04bd	-0.09082935
171	0x3d340e26	0.043958806
172	0xbd878faf	-0.06619202
173	0xbd5faf83	-0.05461074
174	0x3ddee11a	0.108827785
175	0x3cd6ce6c	0.026221476
176	0xbda117cf	-0.07865869
177	0xbd3748aa	-0.044747032
178	0xbd2a444d	-0.041569043
179	0x3d98b218	0.07455844
180	0x3de069f4	0.10957709
181	0x3e0103ab	0.12599055
182	0xbddc4fb7	-0.10757392
183	0xbc798520	-0.015229493
184	0x3d112f53	0.035445523
185	0xbd7d1bfa	-0.06179426
186	0x3dd4eb0e	0.103963956
187	0xbc90002c	-0.017578207
188	0x3c75374b	0.014966796
189	0xbe0a6b9c	-0.13517612
190	0x3de68f16	0.1125776
191	0xbdda22c7	-0.106511645
192	0xbb793235	-0.003802431
193	0xbe040f78	-0.12896526
194	0x3df293c4	0.1184459
195	0x3c099126	0.0083964225
196	0x3d90510c	0.070467085
197	0xbdfe851c	-0.12427732
198	0x3c6be844	0.014398638
199	0x3d8142d4	0.063115746
200	0x3de4ada3	0.11165931
201	0x3dedfb20	0.11620164
202	0xbce740cd	-0.028229142
203	0xbc878718	-0.01654391
204	0x3d5e04e3	0.05420388
205	0xbd68dc28	-0.056850582
206	0xbd823e22	-0.06359507
207	0xbe135acf	-0.1439011
208	0xbe1cf8b5	-0.15329249
209	0xbda9036c	-0.08252606
210	0x3ca1b825	0.019741127
211	0x3c50cd67	0.012744284
212	0x3c4b8366	0.012421465
213	0x3cc1f9e1	0.023678722
214	0xbce09e67	-0.027419282
215	0xbe1e2356	-0.15443167
216	0x3e129b4c	0.14317054
217	0xbde9108c	-0.11380109
218	0xbaf2aebd	-0.0018515211
219	0x3d822fa3	0.06356742
220	0x3d2d70e0	0.042343974
221	0xbd8ca533	-0.06867447
222	0xbe0cb36f	-0.13740323
223	0x3dffdcb1	0.124932654
224	0x3bca5d30	0.0061756596
225	0x3e13a94f	0.14420055
226	0x3d97144e	0.0737692
227	0x3d8a55bc	0.06754634
228	0x3d135cf5	0.035977323
229	0xbd12109c	-0.03566037
230	0xbdba5cb6	-0.090997145
231	0x3cabac16	0.02095608
232	0x3e1b9598	0.15193784
233	0x3dc2213d	0.09478996
234	0x3e14ee2a	0.14543977
235	0x3e189a0c	0.14902514
236	0x3dfe8a92	0.12428774
237	0xbdb5c0ef	-0.0887469
238	0xbdb0f58c	-0.08640584
239	0xbb760f51	-0.003754575
240	0xbda778b8	-0.08177322
241	0xbd2fb9d0	-0.042901814
242	0xbd5dd90b	-0.054162066
243	0x3e0e99f3	0.13925914
244	0xbc498a59	-0.012301051
245	0x3e1cb934	0.15305024
246	0xbdfc9cf3	-0.12334623
247	0xbe216b3c	-0.15763563
248	0x3caa8909	0.020817297
249	0x3cfc578f	0.03080347
250	0xbd82ab71	-0.06380356
251	0xbda3df87	-0.08001619
252	0x3d39ac72	0.045330472
253	0x3c01c771	0.007921086
254	0xbcbc6d2b	-0.023001274
255	0x3da0ce64	0.07851866

emb_linear1.0.bias f4 [600]
0	0xbbfb28aa	-0.0076647596
1	0x3de6fdcf	0.11278879
2	0x3e082f84	0.13299376
3	0x3db80621	0.08985544
4	0xbdd3b405	-0.103370704
5	0x3e1142d9	0.14185657
6	0xbcbfc7c1	-0.02341068
7	0x3b97a27c	0.004627524
8	0x3cc27e1b	0.023741772
9	0xbdb531b2	-0.08847369
10	0x3e161c66	0.1465927
11	0x3dad3356	0.08457057
12	0xbd3ab150	-0.045579255
13	0x3c3d5658	0.0115562305
14	0x3df1af7a	0.118010476
15	0x3dd99970	0.10624969
16	0x3e183253	0.14862947
17	0xbd903346	-0.0704103
18	0x3b7dd6a4	0.0038732672
19	0x3d9efaaf	0.07762658
20	0x3e1aaa94	0.15104133
21	0xbe02bc3d	-0.1276712
22	0xbdad2d1d	-0.0845587
23	0x3ddcc0df	0.10778975
24	0x3ccc3e14	0.024931945
25	0xbe225443	-0.15852456
26	0xbd8480ca	-0.06469877
27	0xbbb304d0	-0.00546322
28	0x3df1df41	0.118101604
29	0x3c09383a	0.008375222
30	0x3d3a8747	0.045539167
31	0xbdc04ef2	-0.093900576
32	0x3c5f1b25	0.013617312
33	0xbdb6743b	-0.08908888
34	0x3cd58ccc	0.026068114
35	0x3e0e7d07	0.13914882
36	0x3d7d942c	0.061908886
37	0xb9a45893	-0.0003134651
38	0x3cab7ad0	0.020932585
39	0xbc942058	-0.018081829
40	0xbdefbdc5	-0.117061175
41	0x3ddd945d	0.10819314
42	0xba35d46e	-0.00069362565
43	0x3dd5b0a2	0.10434081
44	0xbdd7b106	-0.105318114
45	0x3caa2297	0.020768447
46	0xbe023a5a	-0.12717572
47	0xbcc8b041	-0.024498107
48	0xbdbec896	-0.093156025
49	0xbe16dda1	-0.14732982
50	0x3c3fd466	0.011708355
51	0x3d8a72f7	0.06760209
52	0xbd24315c	-0.040086135
53	0x3cb6c2ad	0.022309626
54	0x3ca31ec0	0.019912124
55	0x3d927662	0.07151486
56	0xbc864633	-0.016390895
57	0x3dcafebf	0.0991187
58	0x3d1677eb	0.036735456
59	0x3c76d5a1	0.015065582
60	0xbdfbca60	-0.12294459
61	0xbd95b0e2	-0.07309128
62	0xbd50214b	-0.050813
63	0xbe1e6b5c	-0.15470642
64	0x3d9f052c	0.07764658
65	0xbd815372	-0.06314744
66	0xbe1813c6	-0.14851293
67	0x3dcc84d8	0.099862754
68	0xbd4c0dfd	-0.049818028
69	0x3d78b8f9	0.06072328
70	0x3d84f7c3	0.06492569
71	0xbc0933e3	-0.008374187
72	0xbda7bc94	-0.08190265
73	0x3b8aa154	0.0042306576
74	0xbbc6f8db	-0.0060721464
75	0xbdf1ed0b	-0.118127905
76	0xbdccaf69	-0.09994394
77	0xbd863b32	-0.06554259
78	0x3dfeb33d	0.12436531
79	0xbd9c6666	-0.076367185
80	0xbdafb5ea	-0.08579619
81	0x3d72f036	0.059311114
82	0x3dd5db5b	0.10442229
83	0xbe070153	-0.13184099
84	0xbdf9bc42	-0.121941105
85	0xbd735120	-0.05940354
86	0xbdbfac7d	-0.093590714
87	0xbc0e7578	-0.008694999
88	0xbdcc9904	-0.09990123
89	0x3d94de64	0.0726898
90	0xbc806e6d	-0.015677655
91	0x3ce75f71	0.028243752
92	0xbcd97260	-0.026543796
93	0x3b883ba5	0.004157501
94	0x3cce0e2c	0.025153242
95	0xbcec0227	-0.02880962
96	0xbdd33371	-0.10312546
97	0x3ddf8cab	0.10915502
98	0x3e156be4	0.14591938
99	0xbe16ccec	-0.14726609
100	0xbd2a9791	-0.04164845
101	0xbdb65384	-0.08902648
102	0xbe15dbf7	-0.14634691
103	0xbdd75f24	-0.105161935
104	0x3df28289	0.11841304
105	0x3e1711b8	0.14752853
106	0x3bc9e2cd	0.00616107
107	0x3d8d0c9b	0.0688717
108	0x3d9ae5e3	0.07563379
109	0x3d9e362e	0.07725178
110	0x3df0c0f9	0.117555566
111	0x3bc99cd9	0.006152731
112	0xbe16f5ff	-0.14742278
113	0x3e18d0d4	0.14923412
114	0xbb09b4b3	-0.0021012246
115	0x3cb76df4	0.022391297
116	0x3db33d1d	0.08751891
117	0xbd6a4160	-0.057191253
118	0xbdb7a40b	-0.089668356
119	0xbddc71b7	-0.10763877
120	0xbcd7fa6d	-0.02636453
121	0x3d85ab4d	0.06526814
122	0xbc742c70	-0.014903173
123	0x3d9d776e	0.07688795
124	0x3c6de4ce	0.014519883
125	0x3cd287ce	0.025699522
126	0xbdcc81ff	-0.09985732
127	0x3c164356	0.009171328
128	0xbd84523e	-0.06460999
129	0x3d520f0e	0.05128389
130	0x3e1dcc1a	0.1540989
131	0xbdf781be	-0.12085293
132	0xbe1c25b2	-0.15248755
133	0xbdfe2192	-0.12408747
134	0xbd4cb020	-0.049972653
135	0xbdd85ed5	-0.10564963
136	0x3cc30423	0.023805683
137	0x3c4305a9	0.011903205
138	0xbca43c5c	-0.020048313
139	0xbd975443	-0.073891185
140	0x3e115d49	0.14195742
141	0x3d1c1ca5	0.038113255
142	0x3d269a48	0.040674478
143	0x3d929aa5	0.07158402
144	0x3e12bf7a	0.14330855
145	0xbd965eb3	-0.07342281
146	0x3e0e89b6	0.1391972
147	0x3dd22cbd	0.102624394
148	0xbd0db377	-0.03459498
149	0xba9c38c3	-0.0011918772
150	0xbded93ae	-0.11600433
151	0x3dc2a862	0.09504773
152	0x3e1c8c06	0.1528779
153	0x3d5eb5d0	0.05437261
154	0xbe1ce9c3	-0.15323548
155	0xbdbc5a49	-0.09196908
156	0x3dd4fb9d	0.10399554
157	0xbd900d1f	-0.07033753
158	0xbc909d25	-0.017653057
159	0x3cb475dc	0.022028856
160	0x3e1e00f9	0.15430059
161	0xbe12b546	-0.14326963
162	0xbdc5bd5f	-0.0965526
163	0xbdfc7790	-0.12327492
164	0xbd8ead2a	-0.06966622
165	0xbd63a913	-0.055581164
166	0xbcbb3637	-0.022853
167	0xbdb1c46b	-0.08680042
168	0xbdb50b8d	-0.08840094
169	0x3d929f74	0.071593195
170	0x3d8e79ca	0.06956823
171	0x3e12dd94	0.14342338
172	0x3dac6f34	0.08419648
173	0xbd1aada0	-0.037763238
174	0x3cf58f71	0.029975625
175	0xbdd1cdca	-0.10244329
176	0xbe13faae	-0.14451095
177	0xbce0dd9f	-0.027449427
178	0x3d00fe23	0.031492364
179	0x3dc5d7e1	0.09660316
180	0x3df58acc	0.11989364
181	0xbccfa29f	-0.025346098
182	0xbe21b4bb	-0.157916
183	0x3b6febf8	0.0036609154
184	0xbe1a7318	-0.15082967
185	0xbdd71887	-0.10502725
186	0x3dd0b844	0.10191396
187	0xbe0dd4ea	-0.13850752
188	0x3dfd5c72	0.12371148
189	0x3d6d9fbb	0.05801366
190	0x3d848e31	0.06472433
191	0x3dd56788	0.10420138
192	0x3cc75963	0.024334615
193	0x3d75c8b0	0.060005844
194	0xbd1c9b2d	-0.038233925
195	0x3df65bdf	0.12029242
196	0x3e21a2a6	0.15784702
197	0xbdf32fcf	-0.11874353
198	0x3de9b7d3	0.11412015
199	0xbe15c113	-0.14624433
200	0xbda68695	-0.08131138
201	0xbd907816	-0.070541546
202	0xbe081b86	-0.1329175
203	0x3d4ab99d	0.04949342
204	0xbd9227ac	-0.07136473
205	0xbe0edc9f	-0.13951348
206	0x3d12278e	0.035682254
207	0x3e20ce46	0.15703687
208	0x3e1fb2e7	0.1559559
209	0x3d803832	0.062607184
210	0x3dc56c28	0.0963977
211	0x3d919b9e	0.0710976
212	0x3da1ef25	0.07906941
213	0x3c5557eb	0.01302145
214	0xbd89dcaa	-0.067315415
215	0xbc14a354	-0.009072144
216	0xbd618321	-0.055056695
217	0x3ddfe446	0.109322116
218	0xbd27348e	-0.040821604
219	0x3dd3ad2a	0.10335763
220	0x3e06146e	0.13093731
221	0xbd580f61	-0.05274904
222	0x3da6a2a3	0.08136489
223	0x3d203739	0.039115164
224	0xbe0a1ae8	-0.13486826
225	0xbdaaa679	-0.083325334
226	0xbbcffd0b	-0.0063473037
227	0x3dd52043	0.10406544
228	0x3d4d6fa5	0.0501553
229	0xbd77c1e4	-0.060487643
230	0x3c70d25e	0.014698593
231	0x3df0b6cb	0.11753615
232	0xbd48b3f2	-0.048999734
233	0xbdce1cc7	-0.100640826
234	0xbd496344	-0.049166933
235	0x3dfb9dbc	0.12285945
236	0x3d243f71	0.040099565
237	0x3d5a342e	0.05327242
238	0x3c9cb40c	0.019128822
239	0x3e02031e	0.12696502
240	0x3dc22cff	0.094812386
241	0x3d475717	0.04866704
242	0x3d93dedf	0.07220244
243	0x3bc0021b	0.005859626
244	0x3deb061f	0.11475777
245	0xbc9ef84d	-0.019405508
246	0x3e002f4b	0.12518041
247	0x3cf2fcfc	0.029661648
248	0x3df1a246	0.11798529
249	0x3d406c15	0.046978075
250	0xbcd0635f	-0.025438009
251	0x3c48c3ef	0.012253745
252	0xbdcde2fc	-0.100530595
253	0xbdd5eaff	-0.104452126
254	0xbe06f3d8	-0.13178957
255	0x3e1107e7	0.14163171

emb_linear2.weight f4 [1, 600]
0	0xbbd7779e	-0.006575539
1	0x3d135651	0.03597099
2	0x3b14024f	0.0022584384
3	0xbbcce1de	-0.0062525114
4	0xbb926535	-0.004467631
5	0x3ca2dfd6	0.019882124
6	0xbc81ba52	-0.015835915
7	0xbd072f60	-0.033004165
8	0xbc900370	-0.017579764
9	0xbc64aa1c	-0.013956573
10	0x3d22233c	0.039584383
11	0x3ce4f6f0	0.02794978
12	0xbcd4ea41	-0.025990607
13	0xbbdb704e	-0.0066967374
14	0x3bd72787	0.0065659913
15	0xbca7f29a	-0.020501424
16	0xbcd419ec	-0.025891267
17	0x3cc78d06	0.024359237
18	0x3bd65484	0.0065408368
19	0xbd1c965c	-0.03822933
20	0x3c9df9f1	0.01928422
21	0xbcd40a57	-0.025883837
22	0x3d162fec	0.036666796
23	0x3cbbb658	0.022914097
24	0xbd1f598e	-0.038903765
25	0x3d0cef3f	0.03440785
26	0x3ccd7795	0.025081435
27	0xbc934fbf	-0.017982362
28	0xbb858623	-0.0040748282
29	0x3d21bc6b	0.03948633
30	0x3d0c3060	0.03422582
31	0x3cf2bce6	0.02963109
32	0x3d29bb75	0.04143854
33	0x3c5691b2	0.01309626
34	0x3c0fa72b	0.008767883
35	0xbc112626	-0.008859193
36	0x3cc1554c	0.023600243
37	0xbc0bf39e	-0.00854197
38	0x3cfa8df6	0.03058527
39	0x3b2317cd	0.0024886013
40	0x392f311b	0.00016707594
41	0x3d2b809a	0.04187069
42	0x3cd39248	0.025826588
43	0xbcd6e024	-0.026229925
44	0xbd0223f5	-0.031772573
45	0x3c02c1f7	0.007980815
46	0x3c0af44a	0.008481095
47	0x3a670994	0.0008813378
48	0x3cfd1493	0.0308936
49	0x3c729755	0.014806588
50	0x3c8ee170	0.017441481
51	0xbd06b1c2	-0.032884367
52	0x3c47f9ea	0.01220558
53	0xbc01efb0	-0.007930681
54	0xb9c2c36e	-0.0003714817
55	0x3d119204	0.035539642
56	0xbcec3363	-0.028833097
57	0xbcfaa735	-0.030597309
58	0x3be906c2	0.0071114013
59	0x3d08870a	0.03333191
60	0x3c576614	0.013146896
61	0xbca4a83c	-0.020099752
62	0x3b8c6811	0.0042848666
63	0x3c6dd0f2	0.0145151485
64	0x3c900df5	0.01758478
65	0x3cc038dd	0.023464615
66	0xbd0b182b	-0.033958595
67	0x3d28af7e	0.041182987
68	0x3aefa4f7	0.0018283416
69	0xbb8a5579	-0.004221615
70	0x3d0b42dc	0.03399931
71	0xbd262f55	-0.040572483
72	0xbc1e9f15	-0.009681483
73	0xbd238afa	-0.03992746
74	0x3ccfb507	0.025354875
75	0xbce87c3d	-0.028379554
76	0x3d24144f	0.04005843
77	0xbc2322da	-0.00995704
78	0xbca1e768	-0.019763663
79	0xbd02460d	-0.031805087
80	0xbc2d8b27	-0.010592259
81	0x3cebe15d	0.028793985
82	0xbcf4200a	-0.029800434
83	0xbc0e9697	-0.008702896
84	0xbcb527ce	-0.022113707
85	0xbb0ca1d3	-0.002145876
86	0xbd070c82	-0.032970913
87	0xbbd088b4	-0.0063639525
88	0x3cef9e14	0.029250182
89	0x3d1ef53c	0.038808092
90	0x3bfcf572	0.007719689
91	0x3d0e739d	0.034778226
92	0xbcb302a1	-0.02185184
93	0x3c218ecc	0.009860706
94	0xbd10f608	-0.035390884
95	0x3d0d0f6e	0.034438543
96	0x3c181322	0.009281905
97	0xbae64edd	-0.001757111
98	0xbc048ed1	-0.008090691
99	0xbc955328	-0.018228129
100	0xbcbeb5b3	-0.02328
101	0xbcc56e47	-0.024100436
102	0xbc41c268	-0.011826135
103	0xbca7c6b2	-0.020480487
104	0xbd1b27a4	-0.0378796
105	0xbcb40d37	-0.021978958
106	0xba6d0ba7	-0.0009042569
107	0x3ba6e00e	0.0050926274
108	0x3c607998	0.013700865
109	0xbcffa8f9	-0.031208502
110	0xbcf4d7b4	-0.029888012
111	0x3d05bd86	0.032651447
112	0xbd0f7bca	-0.035030164
113	0x3d0c1650	0.034200966
114	0xbc7cb8bc	-0.0154249035
115	0x3c6bb9ca	0.014387557
116	0x3c8d8f71	0.017280312
117	0xbcb87953	-0.02251879
118	0xbcf9feb7	-0.030516965
119	0x3c8b5db9	0.017012464
120	0xbc8ad2b4	-0.016946174
121	0xbc5496ba	-0.012975389
122	0xbc3a89f3	-0.011385429
123	0xbbcbefce	-0.0062236553
124	0x3d0149b9	0.031564448
125	0xbcd6c933	-0.026218986
126	0x3cde802f	0.027160732
127	0xbafc9e2c	-0.0019273213
128	0xbc39bcb1	-0.011336491
129	0xbd1cc726	-0.03827586
130	0xbb932c14	-0.0044913385
131	0x3c92527f	0.017861603
132	0x3cc6449b	0.024202636
133	0x3b8ffa33	0.0043938397
134	0x3c009ef9	0.007850402
135	0x3ced4d98	0.028967664
136	0x3cd99403	0.026559835
137	0x3d1e7ec6	0.03869512
138	0xbcc6ecf5	-0.024282912
139	0x3c7b5f47	0.01534254
140	0x3cad21a5	0.021134207
141	0x3d06d071	0.03291363
142	0x3ce3dd84	0.027815588
143	0xbc3f32d3	-0.011669832
144	0xbca6fbb6	-0.020383697
145	0xbd1fb02a	-0.038986363
146	0x3d03d70b	0.032187503
147	0x3c92cdf2	0.017920468
148	0x3c97d173	0.01853249
149	0xbce18060	-0.027527034
150	0x3c262c11	0.010142342
151	0x3d0091b5	0.031388957
152	0xbd10bb3f	-0.03533482
153	0x3d07aea4	0.033125535
154	0xbc11db74	-0.008902419
155	0xbcf1b8f4	-0.029507138
156	0xbbd560fe	-0.0065118065
157	0xbc2b7926	-0.010465896
158	0xbd249d04	-0.040188804
159	0xbccf4df1	-0.02530572
160	0xbb75cfea	-0.003750796
161	0x3bc26f08	0.005933646
162	0x3cf6c785	0.030124435
163	0xbc812dc5	-0.015768895
164	0xbce20209	-0.027588861
165	0xbca75907	-0.020428194
166	0x3d2cf170	0.04222244
167	0xbd1b1fe1	-0.0378722
168	0x3d024957	0.031808224
169	0x3c48e0f5	0.012260665
170	0xba571fc3	-0.0008206332
171	0x3cf77ca3	0.030210799
172	0x3bd5fb9d	0.006530239
173	0x3d1166f8	0.03549859
174	0x3d0c6a4b	0.034281056
175	0xbca8ed48	-0.020620957
176	0xbccfb4eb	-0.025354823
177	0x3b2f6388	0.0026762206
178	0x3c1c9b9b	0.009558584
179	0x3cc758d0	0.024334341
180	0x3c43b1f7	0.011944286
181	0x3c3ee4d5	0.0116512375
182	0x3cd3ff37	0.025878532
183	0xbc4b419f	-0.012405782
184	0x3d2ba9fb	0.041910153
185	0xbcc308d6	-0.023807924
186	0x3cd6101b	0.026130727
187	0xbc559750	-0.013036564
188	0x3c524821	0.01283458
189	0xbca392a7	-0.01996739
190	0x3ba3a8d9	0.0049944934
191	0x3d081078	0.03321883
192	0xbcde2606	-0.02711774
193	0xbd1fc19b	-0.039002996
194	0x3cea5073	0.028602814
195	0xbbf1d74d	-0.007380402
196	0x3c9519c3	0.01820076
197	0x3bb7a257	0.005604069
198	0x3ca84598	0.020540997
199	0x3d0d092f	0.034432586
200	0xbcb054a8	-0.021524742
201	0x3c26f59f	0.010190397
202	0x3d128d0e	0.03577905
203	0x3b3b1f19	0.0028552471
204	0x3cdefa14	0.027218856
205	0xbccd80b1	-0.025085779
206	0x3ca92b5d	0.02065056
207	0x3c9b2772	0.018939707
208	0xbd0f688b	-0.03501181
209	0x3ce9a3f4	0.028520562
210	0xbb07fe50	-0.0020750947
211	0x3ca6d9b0	0.020367473
212	0xbcc6c5db	-0.024264267
213	0xbd100f15	-0.035170633
214	0x3d277a3c	0.040888056
215	0xbc6033f4	-0.013684262
216	0x3c72f1da	0.01482817
217	0xbb15d111	-0.002286021
218	0xbcabaead	-0.020957315
219	0x3d29de8e	0.04147201
220	0x3cf05ab8	0.029340133
221	0x3c26e237	0.01018577
222	0x3cd8118a	0.02637555
223	0xbbd8eff9	-0.006620404
224	0x3c370070	0.011169538
225	0x3c09c532	0.008408831
226	0xbc8af5a6	-0.016962837
227	0xbcc9fbd0	-0.024656206
228	0xbc903a7a	-0.017606009
229	0x3c83b706	0.016078483
230	0x3a8457ed	0.0010097005
231	0xbb776891	-0.0037751535
232	0x3caeb9c2	0.02132881
233	0xbc90841d	-0.017641122
234	0x3d1b2a8f	0.037882384
235	0x3d18199b	0.037133794
236	0x3d2b5e5e	0.041838042
237	0xbd0e5bd2	-0.034755535
238	0xbc310ca4	-0.010806236
239	0xbc31d54e	-0.010854078
240	0xbd0dd8bc	-0.034630522
241	0xbc847f11	-0.016173871
242	0x3c96dbbd	0.018415326
243	0x3cf254b8	0.029581413
244	0x3d1c18f4	0.038109735
245	0x3c131767	0.0089777475
246	0xbd18ef67	-0.037337687
247	0x3d04bc9a	0.032406427
248	0xbc303295	-0.010754247
249	0xbc8d9a18	-0.017285392
250	0x3cdfd08b	0.02732112
251	0xbc78dcda	-0.015189374
252	0xbd21c6e3	-0.039496314
253	0x3b4c367c	0.0031160405
254	0x3cf82646	0.030291688
255	0x3d11d3ae	0.035602264

cond_proj.0.weight f4 [40, 20]
0	0x3bbf7b4e	0.0058435565
1	0xbe3f6e81	-0.18694498
2	0x3e50f1a5	0.2040468
3	0xbd3d1baf	-0.04616898
4	0x3e22f9d2	0.15915611
5	0xbe413f25	-0.18871744
6	0xbdb43f99	-0.08801193
7	0xbc84c20d	-0.016205812
8	0xbd03c5be	-0.032171004
9	0xbc57e4ab	-0.013177077
10	0xbdbd6954	-0.09248605
11	0xbbd6297b	-0.0065357066
12	0x3bd61ebf	0.006534427
13	0x3e1c340b	0.15254228
14	0x3d6d5c1d	0.057949174
15	0x3e354519	0.1770214
16	0xbcae09fd	-0.021244997
17	0x3d65876c	0.05603735
18	0xbda18b41	-0.07887889
19	0xbdeed59e	-0.11661838
20	0x3df5b7c7	0.11997943
21	0xbc22bc68	-0.009932615
22	0xbc82e03c	-0.015976064
23	0xbdcbebd4	-0.0995709
24	0xbd592f05	-0.053023357
25	0x3e3f78fa	0.18698493
26	0x3d6da21a	0.05801592
27	0xbe45a2d8	-0.19300401
28	0xbe0f5187	-0.13995944
29	0x3cb7a811	0.022419007
30	0xbe01c1bf	-0.12671565
31	0xbe371660	-0.17879629
32	0x3e409920	0.18808413
33	0xbe3dcf51	-0.18536116
34	0xbe4bcd8b	-0.19902627
35	0x3e57d6e9	0.21078075
36	0x3e135c85	0.14390762
37	0xbdfb6677	-0.12275403
38	0x3dae26d9	0.08503503
39	0xbd6e9054	-0.05824311
40	0x3e259f4d	0.1617405
41	0xbd827a17	-0.06370943
42	0xbe59a88d	-0.21255703
43	0xbd3d9397	-0.04628333
44	0x3e103678	0.14083278
45	0xbdf8526f	-0.12125098
46	0x3b908aad	0.0044110627
47	0x3d4cc661	0.049993876
48	0xbd008ec1	-0.03138614
49	0xbdc1aba3	-0.09456565
50	0xbe51d6ad	-0.20492049
51	0x3dd60590	0.1045028
52	0x3d433373	0.047656488
53	0xbd970ee5	-0.07375888
54	0xbdda5b9e	-0.10662006
55	0xbe228dd2	-0.15874413
56	0xbc395b99	-0.0113133425
57	0xbd7a96dc	-0.061179027
58	0xbdb71f9d	-0.08941577
59	0x39f500d0	0.00046730647
60	0xbdd63e15	-0.1046106
61	0x3d5378d5	0.051628906
62	0x3dbb8608	0.09156424
63	0x39f2e8c9	0.00046331275
64	0x3dd778fd	0.105211236
65	0x3e62a6c0	0.22133923
66	0xbe493eeb	-0.19652908
67	0xbd3d222f	-0.04617518
68	0xbd83d565	-0.06437186
69	0xbe18ae02	-0.14910129
70	0x3e1949e3	0.14969592
71	0x3dac71d8	0.084201515
72	0xbc34037c	-0.010987159
73	0xbe0365cd	-0.12831803
74	0x3d26c08b	0.040710967
75	0x3e292b3b	0.16520397
76	0x3e0e490b	0.13895051
77	0x3d9f3f3b	0.07775732
78	0xbd815823	-0.06315639
79	0xbd97f7d5	-0.07420317
80	0xbddd86b2	-0.10816707
81	0xbe159bc0	-0.14610195
82	0xbc352985	-0.011057262
83	0xbd9ef711	-0.07761968
84	0x3e3c4eb6	0.18389401
85	0xbe2341a5	-0.1594301
86	0xbe3b483a	-0.18289271
87	0x3e4d09e3	0.20023303
88	0xbdfa60ce	-0.12225495
89	0x3e09b6be	0.13448617
90	0x3db4fde2	0.08837487
91	0xbcd16d96	-0.02556495
92	0x3e32cf00	0.17461777
93	0x3c306c4c	0.0107680075
94	0xbdd1c4d9	-0.10242624
95	0x3d27fd3a	0.04101298
96	0x3dd227fa	0.10261531
97	0x3e0c6f7b	0.13714401
98	0xbbf8f1ba	-0.0075971754
99	0x3dd4dc37	0.10393565
100	0x3e07b2d9	0.13251819
101	0xbcf62c0e	-0.030050304
102	0xbde1be41	-0.11022616
103	0xbe63e900	-0.22256851
104	0x3e29c49c	0.16578907
105	0xbd611010	-0.05494696
106	0x3c0f361f	0.008740931
107	0x3da83e1b	0.08214971
108	0x3cd86b56	0.02641837
109	0xbe5f8879	-0.21829404
110	0x3e0261ed	0.12732668
111	0xbe2d23e4	-0.16908222
112	0x3dea31dc	0.11435291
113	0x3dae7426	0.08518247
114	0x3e2d5659	0.1692747
115	0x3d4a20a7	0.049347546
116	0xbd4c8556	-0.049931847
117	0xbdafe9e8	-0.08589536
118	0xbe251fab	-0.16125362
119	0xbe23c44c	-0.1599285
120	0xbde6e675	-0.11274425
121	0x3e4ee069	0.20202793
122	0xbc923c07	-0.017850889
123	0x3d0aa33b	0.033847075
124	0xbcd35f8f	-0.025802402
125	0xbdf39bf0	-0.11894977
126	0x3e07dc0f	0.1326754
127	0x3bd52cce	0.0065055853
128	0x3dcd8ccc	0.100366205
129	0xbe362e35	-0.17791064
130	0x3d741433	0.059589576
131	0x3e3c8a63	0.18412165
132	0xbd1d8b92	-0.038463183
133	0x3df6f6bd	0.1205878
134	0xbd9621df	-0.07330679
135	0xbe60681f	-0.21914719
136	0xbe146684	-0.14492232
137	0xbd8fb937	-0.07017749
138	0x3e414f7b	0.18877976
139	0x3e4dab1e	0.20084807
140	0x3d860c07	0.06545263
141	0x3d109123	0.035294663
142	0xbc85ee07	-0.016348852
143	0xbe298d22	-0.16557744
144	0x3b1c5525	0.002385446
145	0x3deddcc6	0.11614375
146	0xbe23d24f	-0.15998195
147	0x3e307ab4	0.17234308
148	0x3d359f26	0.04434123
149	0xbe0a64d1	-0.13515021
150	0xbe585826	-0.21127376
151	0xbd8accde	-0.067773566
152	0xbe603d39	-0.21898355
153	0x3d86f588	0.065898
154	0xbdfe0806	-0.12403874
155	0xbe655cb7	-0.22398649
156	0x3e56d532	0.20979765
157	0x3dc81939	0.09770436
158	0xbde506c4	-0.11182931
159	0x3e5f1aa0	0.217875
160	0xbd274337	-0.040835585
161	0xbd35ef07	-0.044417407
162	0xbe3b5e10	-0.18297601
163	0x3dea2acd	0.11433945
164	0xbdaab5c8	-0.08335453
165	0x3d35abda	0.044353344
166	0xbc6283de	-0.013825385
167	0x3d98d94e	0.074633226
168	0x3c9bc31d	0.019013936
169	0x3e0f0136	0.13965306
170	0xbdb453e3	-0.088050626
171	0x3dc8f5f0	0.09812534
172	0xbc930250	-0.017945439
173	0xbe259248	-0.16169083
174	0xbdef9a97	-0.116994075
175	0xbe240f69	-0.16021504
176	0xbe2cc06a	-0.16870275
177	0x3d9f62f3	0.07782545
178	0x3d852b4e	0.065024
179	0xbcf34fa4	-0.029701062
180	0x3e2ac590	0.16676927
181	0x3d457634	0.04820843
182	0xbd228af6	-0.039683305
183	0x3e2a5c4d	0.16636772
184	0x3e567260	0.20942068
185	0x3e4605bb	0.19338124
186	0x3e1e9e5a	0.15490094
187	0xbe374ddf	-0.17900799
188	0xbe4ea33f	-0.20179461
189	0x3cf7af57	0.030234976
190	0x3e1b5fb8	0.15173233
191	0xbe0f7b4d	-0.1401188
192	0x3da7600c	0.08172616
193	0x3e4a8b17	0.19779621
194	0x3dd3d644	0.10343602
195	0xbe1ac54b	-0.15114324
196	0x3e0098c1	0.12558271
197	0x3d2286ef	0.039679464
198	0x3e528f1b	0.20562403
199	0x3e280f55	0.16412099
200	0x3e080c75	0.13286002
201	0x3e617ebe	0.22021005
202	0xbadd0577	-0.001686259
203	0x3da366b6	0.07978575
204	0xbe350bce	-0.17680284
205	0x3e2136dd	0.15743585
206	0xbe55bc4f	-0.20872615
207	0xbd54482a	-0.051826634
208	0xbbded906	-0.0068007736
209	0x3d285735	0.041098792
210	0xbe2ae70d	-0.16689701
211	0x3e058385	0.13038452
212	0x3e056aae	0.13028976
213	0x3d75a1ab	0.05996863
214	0xbe051ea9	-0.12999977
215	0xbe1e970e	-0.1548731
216	0xbe3f93fe	-0.18708798
217	0xbe3f65bc	-0.18691152
218	0xbe24572c	-0.16048878
219	0xbd40c168	-0.047059447
220	0x3d231c39	0.039821837
221	0x3e5e3459	0.21699657
222	0x3d9aad9e	0.07552646
223	0xbe35c368	-0.17750323
224	0xbe11c69d	-0.14235921
225	0x3e57c91c	0.21072811
226	0xbd7259ff	-0.05916786
227	0x3b0a4ac5	0.0021101695
228	0xbd7ad7c3	-0.061240923
229	0xbe3623f8	-0.17787158
230	0xbcd1820c	-0.025574706
231	0x3cd75079	0.02628349
232	0xbc85fdac	-0.016356312
233	0xbe3c57a4	-0.18392807
234	0xbe30bd5c	-0.17259735
235	0xbcaea0de	-0.021316942
236	0xbd31e9c5	-0.04343583
237	0xbe2ecd61	-0.17070533
238	0xbd0654c5	-0.032795686
239	0x3cc704dd	0.024294311
240	0x3dfb3a9b	0.122670375
241	0xbe3907b0	-0.18069339
242	0x3e0c0ec8	0.13677514
243	0xbe257a39	-0.16159905
244	0x3d9b07e6	0.07569866
245	0x3dd1c94f	0.10243475
246	0x3d07c914	0.033150747
247	0xbe5858c5	-0.21127613
248	0xbdccc560	-0.09998584
249	0xbdd11bfe	-0.10210417
250	0xbba2636a	-0.0049556987
251	0x3e0ef1fe	0.139595
252	0x3dd0b21a	0.1019022
253	0x3da2d864	0.079514295
254	0x3e34cbb3	0.1765583
255	0x3e0b419b	0.13599245

cond_proj.0.bias f4 [40]
0	0xbd3ff900	-0.046868324
1	0xbd012615	-0.03153046
2	0xbd873941	-0.06602717
3	0x3e64fac1	0.2236128
4	0x3dc4750d	0.09592638
5	0xbe0f694d	-0.14005013
6	0xbdd91c56	-0.10601108
7	0x3d5ae7ea	0.053443827
8	0x3d921cfb	0.07134434
9	0xbe015db8	-0.12633407
10	0xbe1865ee	-0.14882633
11	0xbdc8ce4f	-0.09804975
12	0x3dc144cb	0.09436949
13	0xbd8fc2df	-0.070195906
14	0x3e11f20f	0.14252494
15	0x3e0403b7	0.12892042
16	0x3e17ef3d	0.14837356
17	0x3de8dc4b	0.113701425
18	0xbd7828d1	-0.0605858
19	0x3ddc6f83	0.10763457
20	0x3e17bec5	0.14818867
21	0xbd8c45b0	-0.06849229
22	0xbe0de3b3	-0.13856392
23	0x3e3394c7	0.17537223
24	0xbdb38b08	-0.087667525
25	0xbd7362d5	-0.059420425
26	0x3dddb648	0.10825783
27	0xbe2e3e0a	-0.17015854
28	0x3dc36802	0.09541322
29	0xbd93b8f4	-0.072130114
30	0x3c2d476c	0.01057611
31	0x3e18d081	0.14923288
32	0x3d7764fe	0.060399048
33	0xbe3e455e	-0.18581149
34	0x3e06f87f	0.13180731
35	0xbcff5204	-0.031167038
36	0xbe5f2635	-0.21791919
37	0xbd9083b4	-0.070563704
38	0x3c9408ec	0.01807066
39	0x3d993830	0.0748142
